ir_version: 5
producer_name: "keras2onnx"
producer_version: "1.5.1"
model_version: 0
graph {
  name: "model_2"
  node {
    input: "input_1"
    input: "W12"
    output: "convolution_output12"
    name: "conv2d_1"
    op_type: "Conv"
    attribute {
      name: "auto_pad"
      s: "SAME_UPPER"
      type: STRING
    }
    attribute {
      name: "dilations"
      ints: 1
      ints: 1
      type: INTS
    }
    attribute {
      name: "group"
      i: 1
      type: INT
    }
    attribute {
      name: "kernel_shape"
      ints: 3
      ints: 3
      type: INTS
    }
    attribute {
      name: "strides"
      ints: 1
      ints: 1
      type: INTS
    }
    doc_string: ""
    domain: ""
  }
  node {
    input: "convolution_output12"
    input: "scale10"
    input: "bias10"
    input: "mean10"
    input: "var10"
    output: "batch_norm_output_buffer10"
    name: "batch_normalization_1"
    op_type: "BatchNormalization"
    attribute {
      name: "epsilon"
      f: 9.999999974752427e-07
      type: FLOAT
    }
    attribute {
      name: "momentum"
      f: 0.9900000095367432
      type: FLOAT
    }
    doc_string: ""
    domain: ""
  }
  node {
    input: "batch_norm_output_buffer10"
    output: "model_1/leaky_re_lu_1/LeakyRelu:0"
    name: "leaky_re_lu_1"
    op_type: "LeakyRelu"
    attribute {
      name: "alpha"
      f: 0.10000000149011612
      type: FLOAT
    }
    doc_string: ""
    domain: ""
  }
  node {
    input: "model_1/leaky_re_lu_1/LeakyRelu:0"
    output: "pooling_output5"
    name: "max_pooling2d_1"
    op_type: "MaxPool"
    attribute {
      name: "auto_pad"
      s: "SAME_UPPER"
      type: STRING
    }
    attribute {
      name: "ceil_mode"
      i: 0
      type: INT
    }
    attribute {
      name: "kernel_shape"
      ints: 2
      ints: 2
      type: INTS
    }
    attribute {
      name: "strides"
      ints: 2
      ints: 2
      type: INTS
    }
    doc_string: ""
    domain: ""
  }
  node {
    input: "pooling_output5"
    input: "W11"
    output: "convolution_output11"
    name: "conv2d_2"
    op_type: "Conv"
    attribute {
      name: "auto_pad"
      s: "SAME_UPPER"
      type: STRING
    }
    attribute {
      name: "dilations"
      ints: 1
      ints: 1
      type: INTS
    }
    attribute {
      name: "group"
      i: 1
      type: INT
    }
    attribute {
      name: "kernel_shape"
      ints: 3
      ints: 3
      type: INTS
    }
    attribute {
      name: "strides"
      ints: 1
      ints: 1
      type: INTS
    }
    doc_string: ""
    domain: ""
  }
  node {
    input: "convolution_output11"
    input: "scale9"
    input: "bias9"
    input: "mean9"
    input: "var9"
    output: "batch_norm_output_buffer9"
    name: "batch_normalization_2"
    op_type: "BatchNormalization"
    attribute {
      name: "epsilon"
      f: 9.999999974752427e-07
      type: FLOAT
    }
    attribute {
      name: "momentum"
      f: 0.9900000095367432
      type: FLOAT
    }
    doc_string: ""
    domain: ""
  }
  node {
    input: "batch_norm_output_buffer9"
    output: "model_1/leaky_re_lu_2/LeakyRelu:0"
    name: "leaky_re_lu_2"
    op_type: "LeakyRelu"
    attribute {
      name: "alpha"
      f: 0.10000000149011612
      type: FLOAT
    }
    doc_string: ""
    domain: ""
  }
  node {
    input: "model_1/leaky_re_lu_2/LeakyRelu:0"
    output: "pooling_output4"
    name: "max_pooling2d_2"
    op_type: "MaxPool"
    attribute {
      name: "auto_pad"
      s: "SAME_UPPER"
      type: STRING
    }
    attribute {
      name: "ceil_mode"
      i: 0
      type: INT
    }
    attribute {
      name: "kernel_shape"
      ints: 2
      ints: 2
      type: INTS
    }
    attribute {
      name: "strides"
      ints: 2
      ints: 2
      type: INTS
    }
    doc_string: ""
    domain: ""
  }
  node {
    input: "pooling_output4"
    input: "W10"
    output: "convolution_output10"
    name: "conv2d_3"
    op_type: "Conv"
    attribute {
      name: "auto_pad"
      s: "SAME_UPPER"
      type: STRING
    }
    attribute {
      name: "dilations"
      ints: 1
      ints: 1
      type: INTS
    }
    attribute {
      name: "group"
      i: 1
      type: INT
    }
    attribute {
      name: "kernel_shape"
      ints: 3
      ints: 3
      type: INTS
    }
    attribute {
      name: "strides"
      ints: 1
      ints: 1
      type: INTS
    }
    doc_string: ""
    domain: ""
  }
  node {
    input: "convolution_output10"
    input: "scale8"
    input: "bias8"
    input: "mean8"
    input: "var8"
    output: "batch_norm_output_buffer8"
    name: "batch_normalization_3"
    op_type: "BatchNormalization"
    attribute {
      name: "epsilon"
      f: 9.999999974752427e-07
      type: FLOAT
    }
    attribute {
      name: "momentum"
      f: 0.9900000095367432
      type: FLOAT
    }
    doc_string: ""
    domain: ""
  }
  node {
    input: "batch_norm_output_buffer8"
    output: "model_1/leaky_re_lu_3/LeakyRelu:0"
    name: "leaky_re_lu_3"
    op_type: "LeakyRelu"
    attribute {
      name: "alpha"
      f: 0.10000000149011612
      type: FLOAT
    }
    doc_string: ""
    domain: ""
  }
  node {
    input: "model_1/leaky_re_lu_3/LeakyRelu:0"
    output: "pooling_output3"
    name: "max_pooling2d_3"
    op_type: "MaxPool"
    attribute {
      name: "auto_pad"
      s: "SAME_UPPER"
      type: STRING
    }
    attribute {
      name: "ceil_mode"
      i: 0
      type: INT
    }
    attribute {
      name: "kernel_shape"
      ints: 2
      ints: 2
      type: INTS
    }
    attribute {
      name: "strides"
      ints: 2
      ints: 2
      type: INTS
    }
    doc_string: ""
    domain: ""
  }
  node {
    input: "pooling_output3"
    input: "W9"
    output: "convolution_output9"
    name: "conv2d_4"
    op_type: "Conv"
    attribute {
      name: "auto_pad"
      s: "SAME_UPPER"
      type: STRING
    }
    attribute {
      name: "dilations"
      ints: 1
      ints: 1
      type: INTS
    }
    attribute {
      name: "group"
      i: 1
      type: INT
    }
    attribute {
      name: "kernel_shape"
      ints: 3
      ints: 3
      type: INTS
    }
    attribute {
      name: "strides"
      ints: 1
      ints: 1
      type: INTS
    }
    doc_string: ""
    domain: ""
  }
  node {
    input: "convolution_output9"
    input: "scale7"
    input: "bias7"
    input: "mean7"
    input: "var7"
    output: "batch_norm_output_buffer7"
    name: "batch_normalization_4"
    op_type: "BatchNormalization"
    attribute {
      name: "epsilon"
      f: 9.999999974752427e-07
      type: FLOAT
    }
    attribute {
      name: "momentum"
      f: 0.9900000095367432
      type: FLOAT
    }
    doc_string: ""
    domain: ""
  }
  node {
    input: "batch_norm_output_buffer7"
    output: "model_1/leaky_re_lu_4/LeakyRelu:0"
    name: "leaky_re_lu_4"
    op_type: "LeakyRelu"
    attribute {
      name: "alpha"
      f: 0.10000000149011612
      type: FLOAT
    }
    doc_string: ""
    domain: ""
  }
  node {
    input: "model_1/leaky_re_lu_4/LeakyRelu:0"
    output: "pooling_output2"
    name: "max_pooling2d_4"
    op_type: "MaxPool"
    attribute {
      name: "auto_pad"
      s: "SAME_UPPER"
      type: STRING
    }
    attribute {
      name: "ceil_mode"
      i: 0
      type: INT
    }
    attribute {
      name: "kernel_shape"
      ints: 2
      ints: 2
      type: INTS
    }
    attribute {
      name: "strides"
      ints: 2
      ints: 2
      type: INTS
    }
    doc_string: ""
    domain: ""
  }
  node {
    input: "pooling_output2"
    input: "W8"
    output: "convolution_output8"
    name: "conv2d_5"
    op_type: "Conv"
    attribute {
      name: "auto_pad"
      s: "SAME_UPPER"
      type: STRING
    }
    attribute {
      name: "dilations"
      ints: 1
      ints: 1
      type: INTS
    }
    attribute {
      name: "group"
      i: 1
      type: INT
    }
    attribute {
      name: "kernel_shape"
      ints: 3
      ints: 3
      type: INTS
    }
    attribute {
      name: "strides"
      ints: 1
      ints: 1
      type: INTS
    }
    doc_string: ""
    domain: ""
  }
  node {
    input: "convolution_output8"
    input: "scale6"
    input: "bias6"
    input: "mean6"
    input: "var6"
    output: "batch_norm_output_buffer6"
    name: "batch_normalization_5"
    op_type: "BatchNormalization"
    attribute {
      name: "epsilon"
      f: 9.999999974752427e-07
      type: FLOAT
    }
    attribute {
      name: "momentum"
      f: 0.9900000095367432
      type: FLOAT
    }
    doc_string: ""
    domain: ""
  }
  node {
    input: "batch_norm_output_buffer6"
    output: "model_1/leaky_re_lu_5/LeakyRelu:0"
    name: "leaky_re_lu_5"
    op_type: "LeakyRelu"
    attribute {
      name: "alpha"
      f: 0.10000000149011612
      type: FLOAT
    }
    doc_string: ""
    domain: ""
  }
  node {
    input: "model_1/leaky_re_lu_5/LeakyRelu:0"
    output: "pooling_output1"
    name: "max_pooling2d_5"
    op_type: "MaxPool"
    attribute {
      name: "auto_pad"
      s: "SAME_UPPER"
      type: STRING
    }
    attribute {
      name: "ceil_mode"
      i: 0
      type: INT
    }
    attribute {
      name: "kernel_shape"
      ints: 2
      ints: 2
      type: INTS
    }
    attribute {
      name: "strides"
      ints: 2
      ints: 2
      type: INTS
    }
    doc_string: ""
    domain: ""
  }
  node {
    input: "pooling_output1"
    input: "W7"
    output: "convolution_output7"
    name: "conv2d_6"
    op_type: "Conv"
    attribute {
      name: "auto_pad"
      s: "SAME_UPPER"
      type: STRING
    }
    attribute {
      name: "dilations"
      ints: 1
      ints: 1
      type: INTS
    }
    attribute {
      name: "group"
      i: 1
      type: INT
    }
    attribute {
      name: "kernel_shape"
      ints: 3
      ints: 3
      type: INTS
    }
    attribute {
      name: "strides"
      ints: 1
      ints: 1
      type: INTS
    }
    doc_string: ""
    domain: ""
  }
  node {
    input: "convolution_output7"
    input: "scale5"
    input: "bias5"
    input: "mean5"
    input: "var5"
    output: "batch_norm_output_buffer5"
    name: "batch_normalization_6"
    op_type: "BatchNormalization"
    attribute {
      name: "epsilon"
      f: 9.999999974752427e-07
      type: FLOAT
    }
    attribute {
      name: "momentum"
      f: 0.9900000095367432
      type: FLOAT
    }
    doc_string: ""
    domain: ""
  }
  node {
    input: "batch_norm_output_buffer5"
    output: "model_1/leaky_re_lu_6/LeakyRelu:0"
    name: "leaky_re_lu_6"
    op_type: "LeakyRelu"
    attribute {
      name: "alpha"
      f: 0.10000000149011612
      type: FLOAT
    }
    doc_string: ""
    domain: ""
  }
  node {
    input: "model_1/leaky_re_lu_6/LeakyRelu:0"
    output: "pooling_output"
    name: "max_pooling2d_6"
    op_type: "MaxPool"
    attribute {
      name: "auto_pad"
      s: "SAME_UPPER"
      type: STRING
    }
    attribute {
      name: "ceil_mode"
      i: 0
      type: INT
    }
    attribute {
      name: "kernel_shape"
      ints: 2
      ints: 2
      type: INTS
    }
    attribute {
      name: "strides"
      ints: 1
      ints: 1
      type: INTS
    }
    doc_string: ""
    domain: ""
  }
  node {
    input: "pooling_output"
    input: "W6"
    output: "convolution_output6"
    name: "conv2d_7"
    op_type: "Conv"
    attribute {
      name: "auto_pad"
      s: "SAME_UPPER"
      type: STRING
    }
    attribute {
      name: "dilations"
      ints: 1
      ints: 1
      type: INTS
    }
    attribute {
      name: "group"
      i: 1
      type: INT
    }
    attribute {
      name: "kernel_shape"
      ints: 3
      ints: 3
      type: INTS
    }
    attribute {
      name: "strides"
      ints: 1
      ints: 1
      type: INTS
    }
    doc_string: ""
    domain: ""
  }
  node {
    input: "convolution_output6"
    input: "scale4"
    input: "bias4"
    input: "mean4"
    input: "var4"
    output: "batch_norm_output_buffer4"
    name: "batch_normalization_7"
    op_type: "BatchNormalization"
    attribute {
      name: "epsilon"
      f: 9.999999974752427e-07
      type: FLOAT
    }
    attribute {
      name: "momentum"
      f: 0.9900000095367432
      type: FLOAT
    }
    doc_string: ""
    domain: ""
  }
  node {
    input: "batch_norm_output_buffer4"
    output: "model_1/leaky_re_lu_7/LeakyRelu:0"
    name: "leaky_re_lu_7"
    op_type: "LeakyRelu"
    attribute {
      name: "alpha"
      f: 0.10000000149011612
      type: FLOAT
    }
    doc_string: ""
    domain: ""
  }
  node {
    input: "model_1/leaky_re_lu_7/LeakyRelu:0"
    input: "W5"
    output: "convolution_output5"
    name: "conv2d_8"
    op_type: "Conv"
    attribute {
      name: "auto_pad"
      s: "SAME_UPPER"
      type: STRING
    }
    attribute {
      name: "dilations"
      ints: 1
      ints: 1
      type: INTS
    }
    attribute {
      name: "group"
      i: 1
      type: INT
    }
    attribute {
      name: "kernel_shape"
      ints: 1
      ints: 1
      type: INTS
    }
    attribute {
      name: "strides"
      ints: 1
      ints: 1
      type: INTS
    }
    doc_string: ""
    domain: ""
  }
  node {
    input: "convolution_output5"
    input: "scale3"
    input: "bias3"
    input: "mean3"
    input: "var3"
    output: "batch_norm_output_buffer3"
    name: "batch_normalization_8"
    op_type: "BatchNormalization"
    attribute {
      name: "epsilon"
      f: 9.999999974752427e-07
      type: FLOAT
    }
    attribute {
      name: "momentum"
      f: 0.9900000095367432
      type: FLOAT
    }
    doc_string: ""
    domain: ""
  }
  node {
    input: "batch_norm_output_buffer3"
    output: "model_1/leaky_re_lu_8/LeakyRelu:0"
    name: "leaky_re_lu_8"
    op_type: "LeakyRelu"
    attribute {
      name: "alpha"
      f: 0.10000000149011612
      type: FLOAT
    }
    doc_string: ""
    domain: ""
  }
  node {
    input: "model_1/leaky_re_lu_8/LeakyRelu:0"
    input: "W4"
    output: "convolution_output4"
    name: "conv2d_11"
    op_type: "Conv"
    attribute {
      name: "auto_pad"
      s: "SAME_UPPER"
      type: STRING
    }
    attribute {
      name: "dilations"
      ints: 1
      ints: 1
      type: INTS
    }
    attribute {
      name: "group"
      i: 1
      type: INT
    }
    attribute {
      name: "kernel_shape"
      ints: 1
      ints: 1
      type: INTS
    }
    attribute {
      name: "strides"
      ints: 1
      ints: 1
      type: INTS
    }
    doc_string: ""
    domain: ""
  }
  node {
    input: "convolution_output4"
    input: "scale2"
    input: "bias2"
    input: "mean2"
    input: "var2"
    output: "batch_norm_output_buffer2"
    name: "batch_normalization_10"
    op_type: "BatchNormalization"
    attribute {
      name: "epsilon"
      f: 9.999999974752427e-07
      type: FLOAT
    }
    attribute {
      name: "momentum"
      f: 0.9900000095367432
      type: FLOAT
    }
    doc_string: ""
    domain: ""
  }
  node {
    input: "batch_norm_output_buffer2"
    output: "model_1/leaky_re_lu_10/LeakyRelu:0"
    name: "leaky_re_lu_10"
    op_type: "LeakyRelu"
    attribute {
      name: "alpha"
      f: 0.10000000149011612
      type: FLOAT
    }
    doc_string: ""
    domain: ""
  }
  node {
    input: "model_1/leaky_re_lu_10/LeakyRelu:0"
    input: "Resize_scales"
    output: "model_1/leaky_re_lu_10/LeakyRelu:0_permuted_upsampled"
    name: "Resize"
    op_type: "Resize"
    attribute {
      name: "mode"
      s: "nearest"
      type: STRING
    }
    doc_string: ""
    domain: ""
  }
  node {
    input: "model_1/leaky_re_lu_10/LeakyRelu:0_permuted_upsampled"
    input: "model_1/leaky_re_lu_5/LeakyRelu:0"
    output: "model_1/concatenate_1/concat:0"
    name: "concatenate_1"
    op_type: "Concat"
    attribute {
      name: "axis"
      i: 1
      type: INT
    }
    doc_string: ""
    domain: ""
  }
  node {
    input: "model_1/leaky_re_lu_8/LeakyRelu:0"
    input: "W3"
    output: "convolution_output3"
    name: "conv2d_9"
    op_type: "Conv"
    attribute {
      name: "auto_pad"
      s: "SAME_UPPER"
      type: STRING
    }
    attribute {
      name: "dilations"
      ints: 1
      ints: 1
      type: INTS
    }
    attribute {
      name: "group"
      i: 1
      type: INT
    }
    attribute {
      name: "kernel_shape"
      ints: 3
      ints: 3
      type: INTS
    }
    attribute {
      name: "strides"
      ints: 1
      ints: 1
      type: INTS
    }
    doc_string: ""
    domain: ""
  }
  node {
    input: "model_1/concatenate_1/concat:0"
    input: "W2"
    output: "convolution_output2"
    name: "conv2d_12"
    op_type: "Conv"
    attribute {
      name: "auto_pad"
      s: "SAME_UPPER"
      type: STRING
    }
    attribute {
      name: "dilations"
      ints: 1
      ints: 1
      type: INTS
    }
    attribute {
      name: "group"
      i: 1
      type: INT
    }
    attribute {
      name: "kernel_shape"
      ints: 3
      ints: 3
      type: INTS
    }
    attribute {
      name: "strides"
      ints: 1
      ints: 1
      type: INTS
    }
    doc_string: ""
    domain: ""
  }
  node {
    input: "convolution_output3"
    input: "scale1"
    input: "bias1"
    input: "mean1"
    input: "var1"
    output: "batch_norm_output_buffer1"
    name: "batch_normalization_9"
    op_type: "BatchNormalization"
    attribute {
      name: "epsilon"
      f: 9.999999974752427e-07
      type: FLOAT
    }
    attribute {
      name: "momentum"
      f: 0.9900000095367432
      type: FLOAT
    }
    doc_string: ""
    domain: ""
  }
  node {
    input: "convolution_output2"
    input: "scale"
    input: "bias"
    input: "mean"
    input: "var"
    output: "batch_norm_output_buffer"
    name: "batch_normalization_11"
    op_type: "BatchNormalization"
    attribute {
      name: "epsilon"
      f: 9.999999974752427e-07
      type: FLOAT
    }
    attribute {
      name: "momentum"
      f: 0.9900000095367432
      type: FLOAT
    }
    doc_string: ""
    domain: ""
  }
  node {
    input: "batch_norm_output_buffer1"
    output: "model_1/leaky_re_lu_9/LeakyRelu:0"
    name: "leaky_re_lu_9"
    op_type: "LeakyRelu"
    attribute {
      name: "alpha"
      f: 0.10000000149011612
      type: FLOAT
    }
    doc_string: ""
    domain: ""
  }
  node {
    input: "batch_norm_output_buffer"
    output: "model_1/leaky_re_lu_11/LeakyRelu:0"
    name: "leaky_re_lu_11"
    op_type: "LeakyRelu"
    attribute {
      name: "alpha"
      f: 0.10000000149011612
      type: FLOAT
    }
    doc_string: ""
    domain: ""
  }
  node {
    input: "model_1/leaky_re_lu_9/LeakyRelu:0"
    input: "W1"
    input: "B1"
    output: "convolution_output1"
    name: "conv2d_10"
    op_type: "Conv"
    attribute {
      name: "auto_pad"
      s: "SAME_UPPER"
      type: STRING
    }
    attribute {
      name: "dilations"
      ints: 1
      ints: 1
      type: INTS
    }
    attribute {
      name: "group"
      i: 1
      type: INT
    }
    attribute {
      name: "kernel_shape"
      ints: 1
      ints: 1
      type: INTS
    }
    attribute {
      name: "strides"
      ints: 1
      ints: 1
      type: INTS
    }
    doc_string: ""
    domain: ""
  }
  node {
    input: "convolution_output1"
    output: "transpose_output1"
    name: "Transpose4"
    op_type: "Transpose"
    attribute {
      name: "perm"
      ints: 0
      ints: 2
      ints: 3
      ints: 1
      type: INTS
    }
    domain: ""
  }
  node {
    input: "model_1/leaky_re_lu_11/LeakyRelu:0"
    input: "W"
    input: "B"
    output: "convolution_output"
    name: "conv2d_13"
    op_type: "Conv"
    attribute {
      name: "auto_pad"
      s: "SAME_UPPER"
      type: STRING
    }
    attribute {
      name: "dilations"
      ints: 1
      ints: 1
      type: INTS
    }
    attribute {
      name: "group"
      i: 1
      type: INT
    }
    attribute {
      name: "kernel_shape"
      ints: 1
      ints: 1
      type: INTS
    }
    attribute {
      name: "strides"
      ints: 1
      ints: 1
      type: INTS
    }
    doc_string: ""
    domain: ""
  }
  node {
    input: "convolution_output"
    output: "transpose_output"
    name: "Transpose2"
    op_type: "Transpose"
    attribute {
      name: "perm"
      ints: 0
      ints: 2
      ints: 3
      ints: 1
      type: INTS
    }
    domain: ""
  }
  node {
    input: "transpose_output"
    output: "TFNodes/model_1/conv2d_13/BiasAdd:0"
    name: "Identity10"
    op_type: "Identity"
    doc_string: ""
    domain: ""
  }
  node {
    input: "transpose_output1"
    output: "TFNodes/model_1/conv2d_10/BiasAdd:0"
    name: "Identity9"
    op_type: "Identity"
    doc_string: ""
    domain: ""
  }
  node {
    input: "image_shape"
    output: "TFNodes/yolo_evaluation_layer_1/Squeeze:0"
    name: "TFNodes/yolo_evaluation_layer_1/Squeeze"
    op_type: "Squeeze"
    attribute {
      name: "axes"
      ints: 0
      type: INTS
    }
    doc_string: ""
    domain: ""
  }
  node {
    input: "TFNodes/yolo_evaluation_layer_1/Squeeze:0"
    input: "TFNodes/yolo_evaluation_layer_1/Squeeze:0"
    output: "TFNodes/yolo_evaluation_layer_1/concat_2:0"
    name: "TFNodes/yolo_evaluation_layer_1/concat_2"
    op_type: "Concat"
    attribute {
      name: "axis"
      i: 0
      type: INT
    }
  }
  node {
    input: "TFNodes/yolo_evaluation_layer_1/Squeeze:0"
    input: "TFNodes/yolo_evaluation_layer_1/Squeeze:0"
    output: "TFNodes/yolo_evaluation_layer_1/concat_5:0"
    name: "TFNodes/yolo_evaluation_layer_1/concat_5"
    op_type: "Concat"
    attribute {
      name: "axis"
      i: 0
      type: INT
    }
  }
  node {
    input: "TFNodes/model_1/conv2d_10/BiasAdd:0"
    output: "TFNodes/yolo_evaluation_layer_1/Shape:0"
    name: "TFNodes/yolo_evaluation_layer_1/Shape"
    op_type: "Shape"
  }
  node {
    input: "TFNodes/yolo_evaluation_layer_1/Shape:0"
    output: "TFNodes/yolo_evaluation_layer_1/Shape__183:0"
    name: "TFNodes/yolo_evaluation_layer_1/Shape__183"
    op_type: "Cast"
    attribute {
      name: "to"
      i: 6
      type: INT
    }
  }
  node {
    input: "TFNodes/yolo_evaluation_layer_1/Shape__183:0"
    input: "TFNodes/yolo_evaluation_layer_1/strided_slice__184"
    input: "TFNodes/yolo_evaluation_layer_1/strided_slice__185"
    input: "TFNodes/yolo_evaluation_layer_1/strided_slice__186"
    input: "TFNodes/yolo_evaluation_layer_1/strided_slice__187"
    output: "TFNodes/yolo_evaluation_layer_1/strided_slice:0"
    name: "TFNodes/yolo_evaluation_layer_1/strided_slice"
    op_type: "Slice"
  }
  node {
    input: "TFNodes/yolo_evaluation_layer_1/strided_slice:0"
    input: "TFNodes/yolo_evaluation_layer_1/mul/y:0"
    output: "TFNodes/yolo_evaluation_layer_1/mul:0"
    name: "TFNodes/yolo_evaluation_layer_1/mul"
    op_type: "Mul"
  }
  node {
    input: "TFNodes/yolo_evaluation_layer_1/mul:0"
    output: "TFNodes/yolo_evaluation_layer_1/Cast_3:0"
    name: "TFNodes/yolo_evaluation_layer_1/Cast_3"
    op_type: "Cast"
    attribute {
      name: "to"
      i: 1
      type: INT
    }
  }
  node {
    input: "TFNodes/yolo_evaluation_layer_1/Cast_3:0"
    input: "TFNodes/yolo_evaluation_layer_1/Squeeze:0"
    output: "TFNodes/yolo_evaluation_layer_1/truediv_2:0"
    name: "TFNodes/yolo_evaluation_layer_1/truediv_2"
    op_type: "Div"
  }
  node {
    input: "TFNodes/yolo_evaluation_layer_1/truediv_2:0"
    output: "TFNodes/yolo_evaluation_layer_1/Min:0"
    name: "TFNodes/yolo_evaluation_layer_1/Min"
    op_type: "ReduceMin"
    attribute {
      name: "axes"
      ints: 0
      type: INTS
    }
    attribute {
      name: "keepdims"
      i: 0
      type: INT
    }
  }
  node {
    input: "TFNodes/yolo_evaluation_layer_1/Squeeze:0"
    input: "TFNodes/yolo_evaluation_layer_1/Min:0"
    output: "TFNodes/yolo_evaluation_layer_1/mul_2:0"
    name: "TFNodes/yolo_evaluation_layer_1/mul_2"
    op_type: "Mul"
  }
  node {
    input: "TFNodes/yolo_evaluation_layer_1/mul:0"
    output: "TFNodes/yolo_evaluation_layer_1/Cast_7:0"
    name: "TFNodes/yolo_evaluation_layer_1/Cast_7"
    op_type: "Cast"
    attribute {
      name: "to"
      i: 1
      type: INT
    }
  }
  node {
    input: "TFNodes/yolo_evaluation_layer_1/Cast_7:0"
    input: "TFNodes/yolo_evaluation_layer_1/Squeeze:0"
    output: "TFNodes/yolo_evaluation_layer_1/truediv_10:0"
    name: "TFNodes/yolo_evaluation_layer_1/truediv_10"
    op_type: "Div"
  }
  node {
    input: "TFNodes/yolo_evaluation_layer_1/truediv_10:0"
    output: "TFNodes/yolo_evaluation_layer_1/Min_1:0"
    name: "TFNodes/yolo_evaluation_layer_1/Min_1"
    op_type: "ReduceMin"
    attribute {
      name: "axes"
      ints: 0
      type: INTS
    }
    attribute {
      name: "keepdims"
      i: 0
      type: INT
    }
  }
  node {
    input: "TFNodes/yolo_evaluation_layer_1/Squeeze:0"
    input: "TFNodes/yolo_evaluation_layer_1/Min_1:0"
    output: "TFNodes/yolo_evaluation_layer_1/mul_8:0"
    name: "TFNodes/yolo_evaluation_layer_1/mul_8"
    op_type: "Mul"
  }
  node {
    input: "TFNodes/yolo_evaluation_layer_1/mul:0"
    input: "TFNodes/yolo_evaluation_layer_1/strided_slice_11__196"
    input: "TFNodes/yolo_evaluation_layer_1/strided_slice_11__197"
    input: "TFNodes/yolo_evaluation_layer_1/strided_slice_11__198"
    input: "TFNodes/yolo_evaluation_layer_1/strided_slice_11__199"
    output: "TFNodes/yolo_evaluation_layer_1/strided_slice_11:0"
    name: "TFNodes/yolo_evaluation_layer_1/strided_slice_11"
    op_type: "Slice"
  }
  node {
    input: "TFNodes/yolo_evaluation_layer_1/strided_slice_11:0"
    output: "TFNodes/yolo_evaluation_layer_1/Cast_2:0"
    name: "TFNodes/yolo_evaluation_layer_1/Cast_2"
    op_type: "Cast"
    attribute {
      name: "to"
      i: 1
      type: INT
    }
  }
  node {
    input: "TFNodes/yolo_evaluation_layer_1/mul:0"
    input: "TFNodes/yolo_evaluation_layer_1/strided_slice_30__188"
    input: "TFNodes/yolo_evaluation_layer_1/strided_slice_30__189"
    input: "TFNodes/yolo_evaluation_layer_1/strided_slice_30__190"
    input: "TFNodes/yolo_evaluation_layer_1/strided_slice_30__191"
    output: "TFNodes/yolo_evaluation_layer_1/strided_slice_30:0"
    name: "TFNodes/yolo_evaluation_layer_1/strided_slice_30"
    op_type: "Slice"
  }
  node {
    input: "TFNodes/yolo_evaluation_layer_1/strided_slice_30:0"
    output: "TFNodes/yolo_evaluation_layer_1/Cast_6:0"
    name: "TFNodes/yolo_evaluation_layer_1/Cast_6"
    op_type: "Cast"
    attribute {
      name: "to"
      i: 1
      type: INT
    }
  }
  node {
    input: "TFNodes/model_1/conv2d_10/BiasAdd:0"
    output: "TFNodes/yolo_evaluation_layer_1/Shape_1:0"
    name: "TFNodes/yolo_evaluation_layer_1/Shape_1"
    op_type: "Shape"
  }
  node {
    input: "TFNodes/yolo_evaluation_layer_1/Shape_1:0"
    output: "TFNodes/yolo_evaluation_layer_1/Shape_1__108:0"
    name: "TFNodes/yolo_evaluation_layer_1/Shape_1__108"
    op_type: "Cast"
    attribute {
      name: "to"
      i: 6
      type: INT
    }
  }
  node {
    input: "TFNodes/yolo_evaluation_layer_1/Shape_1__108:0"
    input: "TFNodes/yolo_evaluation_layer_1/strided_slice_1__109"
    input: "TFNodes/yolo_evaluation_layer_1/strided_slice_1__110"
    input: "TFNodes/yolo_evaluation_layer_1/strided_slice_1__111"
    input: "TFNodes/yolo_evaluation_layer_1/strided_slice_1__112"
    output: "TFNodes/yolo_evaluation_layer_1/strided_slice_1:0"
    name: "TFNodes/yolo_evaluation_layer_1/strided_slice_1"
    op_type: "Slice"
  }
  node {
    input: "TFNodes/yolo_evaluation_layer_1/strided_slice_1:0"
    input: "TFNodes/yolo_evaluation_layer_1/strided_slice_2__168"
    input: "TFNodes/yolo_evaluation_layer_1/strided_slice_2__169"
    input: "TFNodes/yolo_evaluation_layer_1/strided_slice_2__170"
    input: "TFNodes/yolo_evaluation_layer_1/strided_slice_2__171"
    output: "TFNodes/yolo_evaluation_layer_1/strided_slice_2:0"
    name: "TFNodes/yolo_evaluation_layer_1/strided_slice_2"
    op_type: "Slice"
  }
  node {
    input: "TFNodes/yolo_evaluation_layer_1/strided_slice_2:0"
    output: "TFNodes/yolo_evaluation_layer_1/strided_slice_2__172:0"
    name: "TFNodes/yolo_evaluation_layer_1/strided_slice_2__172"
    op_type: "Squeeze"
    attribute {
      name: "axes"
      ints: 0
      type: INTS
    }
  }
  node {
    input: "TFNodes/yolo_evaluation_layer_1/strided_slice_2__172:0"
    input: "TFNodes/yolo_evaluation_layer_1/arange/start:0"
    output: "TFNodes/yolo_evaluation_layer_1/arange__173_diff__174:0"
    name: "TFNodes/yolo_evaluation_layer_1/arange__173_diff__174"
    op_type: "Sub"
    domain: ""
  }
  node {
    input: "TFNodes/yolo_evaluation_layer_1/arange__173_diff__174:0"
    output: "TFNodes/yolo_evaluation_layer_1/arange__173_cast_diff:0"
    name: "TFNodes/yolo_evaluation_layer_1/arange__173_cast_diff"
    op_type: "Cast"
    attribute {
      name: "to"
      i: 1
      type: INT
    }
    domain: ""
  }
  node {
    input: "TFNodes/yolo_evaluation_layer_1/strided_slice_1:0"
    input: "TFNodes/yolo_evaluation_layer_1/strided_slice_3__158"
    input: "TFNodes/yolo_evaluation_layer_1/strided_slice_3__159"
    input: "TFNodes/yolo_evaluation_layer_1/strided_slice_3__160"
    input: "TFNodes/yolo_evaluation_layer_1/strided_slice_3__161"
    output: "TFNodes/yolo_evaluation_layer_1/strided_slice_3:0"
    name: "TFNodes/yolo_evaluation_layer_1/strided_slice_3"
    op_type: "Slice"
  }
  node {
    input: "TFNodes/yolo_evaluation_layer_1/strided_slice_3:0"
    output: "TFNodes/yolo_evaluation_layer_1/strided_slice_3__162:0"
    name: "TFNodes/yolo_evaluation_layer_1/strided_slice_3__162"
    op_type: "Squeeze"
    attribute {
      name: "axes"
      ints: 0
      type: INTS
    }
  }
  node {
    input: "TFNodes/yolo_evaluation_layer_1/strided_slice_3__162:0"
    output: "TFNodes/yolo_evaluation_layer_1/Tile/multiples_Unsqueeze__164:0"
    name: "TFNodes/yolo_evaluation_layer_1/Tile/multiples_Unsqueeze__164"
    op_type: "Unsqueeze"
    attribute {
      name: "axes"
      ints: 0
      type: INTS
    }
    domain: ""
  }
  node {
    input: "TFNodes/yolo_evaluation_layer_1/strided_slice_1:0"
    input: "TFNodes/yolo_evaluation_layer_1/strided_slice_4__143"
    input: "TFNodes/yolo_evaluation_layer_1/strided_slice_4__144"
    input: "TFNodes/yolo_evaluation_layer_1/strided_slice_4__145"
    input: "TFNodes/yolo_evaluation_layer_1/strided_slice_4__146"
    output: "TFNodes/yolo_evaluation_layer_1/strided_slice_4:0"
    name: "TFNodes/yolo_evaluation_layer_1/strided_slice_4"
    op_type: "Slice"
  }
  node {
    input: "TFNodes/yolo_evaluation_layer_1/strided_slice_4:0"
    output: "TFNodes/yolo_evaluation_layer_1/strided_slice_4__147:0"
    name: "TFNodes/yolo_evaluation_layer_1/strided_slice_4__147"
    op_type: "Squeeze"
    attribute {
      name: "axes"
      ints: 0
      type: INTS
    }
  }
  node {
    input: "TFNodes/yolo_evaluation_layer_1/strided_slice_4__147:0"
    input: "TFNodes/yolo_evaluation_layer_1/arange_1/start:0"
    output: "TFNodes/yolo_evaluation_layer_1/arange_1__148_diff__149:0"
    name: "TFNodes/yolo_evaluation_layer_1/arange_1__148_diff__149"
    op_type: "Sub"
    domain: ""
  }
  node {
    input: "TFNodes/yolo_evaluation_layer_1/arange_1__148_diff__149:0"
    output: "TFNodes/yolo_evaluation_layer_1/arange_1__148_cast_diff:0"
    name: "TFNodes/yolo_evaluation_layer_1/arange_1__148_cast_diff"
    op_type: "Cast"
    attribute {
      name: "to"
      i: 1
      type: INT
    }
    domain: ""
  }
  node {
    input: "TFNodes/yolo_evaluation_layer_1/strided_slice_1:0"
    input: "TFNodes/yolo_evaluation_layer_1/strided_slice_5__133"
    input: "TFNodes/yolo_evaluation_layer_1/strided_slice_5__134"
    input: "TFNodes/yolo_evaluation_layer_1/strided_slice_5__135"
    input: "TFNodes/yolo_evaluation_layer_1/strided_slice_5__136"
    output: "TFNodes/yolo_evaluation_layer_1/strided_slice_5:0"
    name: "TFNodes/yolo_evaluation_layer_1/strided_slice_5"
    op_type: "Slice"
  }
  node {
    input: "TFNodes/yolo_evaluation_layer_1/strided_slice_5:0"
    output: "TFNodes/yolo_evaluation_layer_1/strided_slice_5__137:0"
    name: "TFNodes/yolo_evaluation_layer_1/strided_slice_5__137"
    op_type: "Squeeze"
    attribute {
      name: "axes"
      ints: 0
      type: INTS
    }
  }
  node {
    input: "TFNodes/yolo_evaluation_layer_1/strided_slice_5__137:0"
    output: "TFNodes/yolo_evaluation_layer_1/Tile_1/multiples_Unsqueeze__138:0"
    name: "TFNodes/yolo_evaluation_layer_1/Tile_1/multiples_Unsqueeze__138"
    op_type: "Unsqueeze"
    attribute {
      name: "axes"
      ints: 0
      type: INTS
    }
    domain: ""
  }
  node {
    input: "TFNodes/yolo_evaluation_layer_1/strided_slice_1:0"
    input: "TFNodes/yolo_evaluation_layer_1/strided_slice_6__122"
    input: "TFNodes/yolo_evaluation_layer_1/strided_slice_6__123"
    input: "TFNodes/yolo_evaluation_layer_1/strided_slice_6__124"
    input: "TFNodes/yolo_evaluation_layer_1/strided_slice_6__125"
    output: "TFNodes/yolo_evaluation_layer_1/strided_slice_6:0"
    name: "TFNodes/yolo_evaluation_layer_1/strided_slice_6"
    op_type: "Slice"
  }
  node {
    input: "TFNodes/yolo_evaluation_layer_1/strided_slice_6:0"
    output: "TFNodes/yolo_evaluation_layer_1/strided_slice_6__126:0"
    name: "TFNodes/yolo_evaluation_layer_1/strided_slice_6__126"
    op_type: "Squeeze"
    attribute {
      name: "axes"
      ints: 0
      type: INTS
    }
  }
  node {
    input: "TFNodes/yolo_evaluation_layer_1/strided_slice_6__126:0"
    output: "TFNodes/yolo_evaluation_layer_1/Reshape_3/shape_Unsqueeze__128:0"
    name: "TFNodes/yolo_evaluation_layer_1/Reshape_3/shape_Unsqueeze__128"
    op_type: "Unsqueeze"
    attribute {
      name: "axes"
      ints: 0
      type: INTS
    }
    domain: ""
  }
  node {
    input: "TFNodes/yolo_evaluation_layer_1/strided_slice_1:0"
    input: "TFNodes/yolo_evaluation_layer_1/strided_slice_7__117"
    input: "TFNodes/yolo_evaluation_layer_1/strided_slice_7__118"
    input: "TFNodes/yolo_evaluation_layer_1/strided_slice_7__119"
    input: "TFNodes/yolo_evaluation_layer_1/strided_slice_7__120"
    output: "TFNodes/yolo_evaluation_layer_1/strided_slice_7:0"
    name: "TFNodes/yolo_evaluation_layer_1/strided_slice_7"
    op_type: "Slice"
  }
  node {
    input: "TFNodes/yolo_evaluation_layer_1/strided_slice_7:0"
    output: "TFNodes/yolo_evaluation_layer_1/strided_slice_7__121:0"
    name: "TFNodes/yolo_evaluation_layer_1/strided_slice_7__121"
    op_type: "Squeeze"
    attribute {
      name: "axes"
      ints: 0
      type: INTS
    }
  }
  node {
    input: "TFNodes/yolo_evaluation_layer_1/strided_slice_7__121:0"
    output: "TFNodes/yolo_evaluation_layer_1/Reshape_3/shape_Unsqueeze__129:0"
    name: "TFNodes/yolo_evaluation_layer_1/Reshape_3/shape_Unsqueeze__129"
    op_type: "Unsqueeze"
    attribute {
      name: "axes"
      ints: 0
      type: INTS
    }
    domain: ""
  }
  node {
    input: "TFNodes/yolo_evaluation_layer_1/strided_slice_1:0"
    input: "TFNodes/yolo_evaluation_layer_1/strided_slice_9__113"
    input: "TFNodes/yolo_evaluation_layer_1/strided_slice_9__114"
    input: "TFNodes/yolo_evaluation_layer_1/strided_slice_9__115"
    input: "TFNodes/yolo_evaluation_layer_1/strided_slice_9__116"
    output: "TFNodes/yolo_evaluation_layer_1/strided_slice_9:0"
    name: "TFNodes/yolo_evaluation_layer_1/strided_slice_9"
    op_type: "Slice"
  }
  node {
    input: "TFNodes/yolo_evaluation_layer_1/strided_slice_9:0"
    output: "TFNodes/yolo_evaluation_layer_1/Cast_1:0"
    name: "TFNodes/yolo_evaluation_layer_1/Cast_1"
    op_type: "Cast"
    attribute {
      name: "to"
      i: 1
      type: INT
    }
  }
  node {
    input: "TFNodes/model_1/conv2d_13/BiasAdd:0"
    output: "TFNodes/yolo_evaluation_layer_1/Shape_2:0"
    name: "TFNodes/yolo_evaluation_layer_1/Shape_2"
    op_type: "Shape"
  }
  node {
    input: "TFNodes/yolo_evaluation_layer_1/Shape_2:0"
    output: "TFNodes/yolo_evaluation_layer_1/Shape_2__11:0"
    name: "TFNodes/yolo_evaluation_layer_1/Shape_2__11"
    op_type: "Cast"
    attribute {
      name: "to"
      i: 6
      type: INT
    }
  }
  node {
    input: "TFNodes/yolo_evaluation_layer_1/Shape_2__11:0"
    input: "TFNodes/yolo_evaluation_layer_1/strided_slice_20__12"
    input: "TFNodes/yolo_evaluation_layer_1/strided_slice_20__13"
    input: "TFNodes/yolo_evaluation_layer_1/strided_slice_20__14"
    input: "TFNodes/yolo_evaluation_layer_1/strided_slice_20__15"
    output: "TFNodes/yolo_evaluation_layer_1/strided_slice_20:0"
    name: "TFNodes/yolo_evaluation_layer_1/strided_slice_20"
    op_type: "Slice"
  }
  node {
    input: "TFNodes/yolo_evaluation_layer_1/strided_slice_20:0"
    input: "TFNodes/yolo_evaluation_layer_1/strided_slice_21__71"
    input: "TFNodes/yolo_evaluation_layer_1/strided_slice_21__72"
    input: "TFNodes/yolo_evaluation_layer_1/strided_slice_21__73"
    input: "TFNodes/yolo_evaluation_layer_1/strided_slice_21__74"
    output: "TFNodes/yolo_evaluation_layer_1/strided_slice_21:0"
    name: "TFNodes/yolo_evaluation_layer_1/strided_slice_21"
    op_type: "Slice"
  }
  node {
    input: "TFNodes/yolo_evaluation_layer_1/strided_slice_21:0"
    output: "TFNodes/yolo_evaluation_layer_1/strided_slice_21__75:0"
    name: "TFNodes/yolo_evaluation_layer_1/strided_slice_21__75"
    op_type: "Squeeze"
    attribute {
      name: "axes"
      ints: 0
      type: INTS
    }
  }
  node {
    input: "TFNodes/yolo_evaluation_layer_1/strided_slice_21__75:0"
    input: "TFNodes/yolo_evaluation_layer_1/arange_2/start:0"
    output: "TFNodes/yolo_evaluation_layer_1/arange_2__76_diff__77:0"
    name: "TFNodes/yolo_evaluation_layer_1/arange_2__76_diff__77"
    op_type: "Sub"
    domain: ""
  }
  node {
    input: "TFNodes/yolo_evaluation_layer_1/arange_2__76_diff__77:0"
    output: "TFNodes/yolo_evaluation_layer_1/arange_2__76_cast_diff:0"
    name: "TFNodes/yolo_evaluation_layer_1/arange_2__76_cast_diff"
    op_type: "Cast"
    attribute {
      name: "to"
      i: 1
      type: INT
    }
    domain: ""
  }
  node {
    input: "TFNodes/yolo_evaluation_layer_1/strided_slice_20:0"
    input: "TFNodes/yolo_evaluation_layer_1/strided_slice_22__61"
    input: "TFNodes/yolo_evaluation_layer_1/strided_slice_22__62"
    input: "TFNodes/yolo_evaluation_layer_1/strided_slice_22__63"
    input: "TFNodes/yolo_evaluation_layer_1/strided_slice_22__64"
    output: "TFNodes/yolo_evaluation_layer_1/strided_slice_22:0"
    name: "TFNodes/yolo_evaluation_layer_1/strided_slice_22"
    op_type: "Slice"
  }
  node {
    input: "TFNodes/yolo_evaluation_layer_1/strided_slice_22:0"
    output: "TFNodes/yolo_evaluation_layer_1/strided_slice_22__65:0"
    name: "TFNodes/yolo_evaluation_layer_1/strided_slice_22__65"
    op_type: "Squeeze"
    attribute {
      name: "axes"
      ints: 0
      type: INTS
    }
  }
  node {
    input: "TFNodes/yolo_evaluation_layer_1/strided_slice_22__65:0"
    output: "TFNodes/yolo_evaluation_layer_1/Tile_2/multiples_Unsqueeze__67:0"
    name: "TFNodes/yolo_evaluation_layer_1/Tile_2/multiples_Unsqueeze__67"
    op_type: "Unsqueeze"
    attribute {
      name: "axes"
      ints: 0
      type: INTS
    }
    domain: ""
  }
  node {
    input: "TFNodes/yolo_evaluation_layer_1/strided_slice_20:0"
    input: "TFNodes/yolo_evaluation_layer_1/strided_slice_23__46"
    input: "TFNodes/yolo_evaluation_layer_1/strided_slice_23__47"
    input: "TFNodes/yolo_evaluation_layer_1/strided_slice_23__48"
    input: "TFNodes/yolo_evaluation_layer_1/strided_slice_23__49"
    output: "TFNodes/yolo_evaluation_layer_1/strided_slice_23:0"
    name: "TFNodes/yolo_evaluation_layer_1/strided_slice_23"
    op_type: "Slice"
  }
  node {
    input: "TFNodes/yolo_evaluation_layer_1/strided_slice_23:0"
    output: "TFNodes/yolo_evaluation_layer_1/strided_slice_23__50:0"
    name: "TFNodes/yolo_evaluation_layer_1/strided_slice_23__50"
    op_type: "Squeeze"
    attribute {
      name: "axes"
      ints: 0
      type: INTS
    }
  }
  node {
    input: "TFNodes/yolo_evaluation_layer_1/strided_slice_23__50:0"
    input: "TFNodes/yolo_evaluation_layer_1/arange_3/start:0"
    output: "TFNodes/yolo_evaluation_layer_1/arange_3__51_diff__52:0"
    name: "TFNodes/yolo_evaluation_layer_1/arange_3__51_diff__52"
    op_type: "Sub"
    domain: ""
  }
  node {
    input: "TFNodes/yolo_evaluation_layer_1/arange_3__51_diff__52:0"
    output: "TFNodes/yolo_evaluation_layer_1/arange_3__51_cast_diff:0"
    name: "TFNodes/yolo_evaluation_layer_1/arange_3__51_cast_diff"
    op_type: "Cast"
    attribute {
      name: "to"
      i: 1
      type: INT
    }
    domain: ""
  }
  node {
    input: "TFNodes/yolo_evaluation_layer_1/strided_slice_20:0"
    input: "TFNodes/yolo_evaluation_layer_1/strided_slice_24__36"
    input: "TFNodes/yolo_evaluation_layer_1/strided_slice_24__37"
    input: "TFNodes/yolo_evaluation_layer_1/strided_slice_24__38"
    input: "TFNodes/yolo_evaluation_layer_1/strided_slice_24__39"
    output: "TFNodes/yolo_evaluation_layer_1/strided_slice_24:0"
    name: "TFNodes/yolo_evaluation_layer_1/strided_slice_24"
    op_type: "Slice"
  }
  node {
    input: "TFNodes/yolo_evaluation_layer_1/strided_slice_24:0"
    output: "TFNodes/yolo_evaluation_layer_1/strided_slice_24__40:0"
    name: "TFNodes/yolo_evaluation_layer_1/strided_slice_24__40"
    op_type: "Squeeze"
    attribute {
      name: "axes"
      ints: 0
      type: INTS
    }
  }
  node {
    input: "TFNodes/yolo_evaluation_layer_1/strided_slice_24__40:0"
    output: "TFNodes/yolo_evaluation_layer_1/Tile_3/multiples_Unsqueeze__41:0"
    name: "TFNodes/yolo_evaluation_layer_1/Tile_3/multiples_Unsqueeze__41"
    op_type: "Unsqueeze"
    attribute {
      name: "axes"
      ints: 0
      type: INTS
    }
    domain: ""
  }
  node {
    input: "TFNodes/yolo_evaluation_layer_1/strided_slice_20:0"
    input: "TFNodes/yolo_evaluation_layer_1/strided_slice_25__25"
    input: "TFNodes/yolo_evaluation_layer_1/strided_slice_25__26"
    input: "TFNodes/yolo_evaluation_layer_1/strided_slice_25__27"
    input: "TFNodes/yolo_evaluation_layer_1/strided_slice_25__28"
    output: "TFNodes/yolo_evaluation_layer_1/strided_slice_25:0"
    name: "TFNodes/yolo_evaluation_layer_1/strided_slice_25"
    op_type: "Slice"
  }
  node {
    input: "TFNodes/yolo_evaluation_layer_1/strided_slice_25:0"
    output: "TFNodes/yolo_evaluation_layer_1/strided_slice_25__29:0"
    name: "TFNodes/yolo_evaluation_layer_1/strided_slice_25__29"
    op_type: "Squeeze"
    attribute {
      name: "axes"
      ints: 0
      type: INTS
    }
  }
  node {
    input: "TFNodes/yolo_evaluation_layer_1/strided_slice_25__29:0"
    output: "TFNodes/yolo_evaluation_layer_1/Reshape_9/shape_Unsqueeze__31:0"
    name: "TFNodes/yolo_evaluation_layer_1/Reshape_9/shape_Unsqueeze__31"
    op_type: "Unsqueeze"
    attribute {
      name: "axes"
      ints: 0
      type: INTS
    }
    domain: ""
  }
  node {
    input: "TFNodes/yolo_evaluation_layer_1/strided_slice_20:0"
    input: "TFNodes/yolo_evaluation_layer_1/strided_slice_26__20"
    input: "TFNodes/yolo_evaluation_layer_1/strided_slice_26__21"
    input: "TFNodes/yolo_evaluation_layer_1/strided_slice_26__22"
    input: "TFNodes/yolo_evaluation_layer_1/strided_slice_26__23"
    output: "TFNodes/yolo_evaluation_layer_1/strided_slice_26:0"
    name: "TFNodes/yolo_evaluation_layer_1/strided_slice_26"
    op_type: "Slice"
  }
  node {
    input: "TFNodes/yolo_evaluation_layer_1/strided_slice_26:0"
    output: "TFNodes/yolo_evaluation_layer_1/strided_slice_26__24:0"
    name: "TFNodes/yolo_evaluation_layer_1/strided_slice_26__24"
    op_type: "Squeeze"
    attribute {
      name: "axes"
      ints: 0
      type: INTS
    }
  }
  node {
    input: "TFNodes/yolo_evaluation_layer_1/strided_slice_26__24:0"
    output: "TFNodes/yolo_evaluation_layer_1/Reshape_9/shape_Unsqueeze__32:0"
    name: "TFNodes/yolo_evaluation_layer_1/Reshape_9/shape_Unsqueeze__32"
    op_type: "Unsqueeze"
    attribute {
      name: "axes"
      ints: 0
      type: INTS
    }
    domain: ""
  }
  node {
    input: "TFNodes/yolo_evaluation_layer_1/strided_slice_20:0"
    input: "TFNodes/yolo_evaluation_layer_1/strided_slice_28__16"
    input: "TFNodes/yolo_evaluation_layer_1/strided_slice_28__17"
    input: "TFNodes/yolo_evaluation_layer_1/strided_slice_28__18"
    input: "TFNodes/yolo_evaluation_layer_1/strided_slice_28__19"
    output: "TFNodes/yolo_evaluation_layer_1/strided_slice_28:0"
    name: "TFNodes/yolo_evaluation_layer_1/strided_slice_28"
    op_type: "Slice"
  }
  node {
    input: "TFNodes/yolo_evaluation_layer_1/strided_slice_28:0"
    output: "TFNodes/yolo_evaluation_layer_1/Cast_5:0"
    name: "TFNodes/yolo_evaluation_layer_1/Cast_5"
    op_type: "Cast"
    attribute {
      name: "to"
      i: 1
      type: INT
    }
  }
  node {
    input: "TFNodes/yolo_evaluation_layer_1/Reshape/shape:0"
    output: "TFNodes/yolo_evaluation_layer_1/Reshape__10:0"
    name: "TFNodes/yolo_evaluation_layer_1/Reshape__10"
    op_type: "Cast"
    attribute {
      name: "to"
      i: 7
      type: INT
    }
  }
  node {
    input: "TFNodes/yolo_evaluation_layer_1/Const:0"
    input: "TFNodes/yolo_evaluation_layer_1/Reshape__10:0"
    output: "TFNodes/yolo_evaluation_layer_1/Reshape:0"
    name: "TFNodes/yolo_evaluation_layer_1/Reshape"
    op_type: "Reshape"
  }
  node {
    input: "TFNodes/yolo_evaluation_layer_1/Reshape_1/shape:0"
    output: "TFNodes/yolo_evaluation_layer_1/Reshape_1__181:0"
    name: "TFNodes/yolo_evaluation_layer_1/Reshape_1__181"
    op_type: "Cast"
    attribute {
      name: "to"
      i: 7
      type: INT
    }
  }
  node {
    input: "TFNodes/yolo_evaluation_layer_1/Reshape_10/shape:0"
    output: "TFNodes/yolo_evaluation_layer_1/Reshape_10__266:0"
    name: "TFNodes/yolo_evaluation_layer_1/Reshape_10__266"
    op_type: "Cast"
    attribute {
      name: "to"
      i: 7
      type: INT
    }
  }
  node {
    input: "TFNodes/yolo_evaluation_layer_1/Reshape_11/shape:0"
    output: "TFNodes/yolo_evaluation_layer_1/Reshape_11__95:0"
    name: "TFNodes/yolo_evaluation_layer_1/Reshape_11__95"
    op_type: "Cast"
    attribute {
      name: "to"
      i: 7
      type: INT
    }
  }
  node {
    input: "TFNodes/yolo_evaluation_layer_1/Reshape_2/shape:0"
    output: "TFNodes/yolo_evaluation_layer_1/Reshape_2__156:0"
    name: "TFNodes/yolo_evaluation_layer_1/Reshape_2__156"
    op_type: "Cast"
    attribute {
      name: "to"
      i: 7
      type: INT
    }
  }
  node {
    input: "TFNodes/yolo_evaluation_layer_1/Reshape_3/shape/0:0"
    output: "TFNodes/yolo_evaluation_layer_1/Reshape_3/shape_Unsqueeze__127:0"
    name: "TFNodes/yolo_evaluation_layer_1/Reshape_3/shape_Unsqueeze__127"
    op_type: "Unsqueeze"
    attribute {
      name: "axes"
      ints: 0
      type: INTS
    }
    domain: ""
  }
  node {
    input: "TFNodes/yolo_evaluation_layer_1/Reshape_3/shape/3:0"
    output: "TFNodes/yolo_evaluation_layer_1/Reshape_3/shape_Unsqueeze__130:0"
    name: "TFNodes/yolo_evaluation_layer_1/Reshape_3/shape_Unsqueeze__130"
    op_type: "Unsqueeze"
    attribute {
      name: "axes"
      ints: 0
      type: INTS
    }
    domain: ""
  }
  node {
    input: "TFNodes/yolo_evaluation_layer_1/Reshape_3/shape/4:0"
    output: "TFNodes/yolo_evaluation_layer_1/Reshape_3/shape_Unsqueeze__131:0"
    name: "TFNodes/yolo_evaluation_layer_1/Reshape_3/shape_Unsqueeze__131"
    op_type: "Unsqueeze"
    attribute {
      name: "axes"
      ints: 0
      type: INTS
    }
    domain: ""
  }
  node {
    input: "TFNodes/yolo_evaluation_layer_1/Reshape_3/shape_Unsqueeze__127:0"
    input: "TFNodes/yolo_evaluation_layer_1/Reshape_3/shape_Unsqueeze__128:0"
    input: "TFNodes/yolo_evaluation_layer_1/Reshape_3/shape_Unsqueeze__129:0"
    input: "TFNodes/yolo_evaluation_layer_1/Reshape_3/shape_Unsqueeze__130:0"
    input: "TFNodes/yolo_evaluation_layer_1/Reshape_3/shape_Unsqueeze__131:0"
    output: "TFNodes/yolo_evaluation_layer_1/Reshape_3/shape_Concat__132:0"
    name: "TFNodes/yolo_evaluation_layer_1/Reshape_3/shape_Concat__132"
    op_type: "Concat"
    attribute {
      name: "axis"
      i: 0
      type: INT
    }
    domain: ""
  }
  node {
    input: "TFNodes/yolo_evaluation_layer_1/Reshape_3/shape_Concat__132:0"
    output: "TFNodes/yolo_evaluation_layer_1/Reshape_3__200:0"
    name: "TFNodes/yolo_evaluation_layer_1/Reshape_3__200"
    op_type: "Cast"
    attribute {
      name: "to"
      i: 7
      type: INT
    }
  }
  node {
    input: "TFNodes/model_1/conv2d_10/BiasAdd:0"
    input: "TFNodes/yolo_evaluation_layer_1/Reshape_3__200:0"
    output: "TFNodes/yolo_evaluation_layer_1/Reshape_3:0"
    name: "TFNodes/yolo_evaluation_layer_1/Reshape_3"
    op_type: "Reshape"
  }
  node {
    input: "TFNodes/yolo_evaluation_layer_1/Reshape_3:0"
    input: "TFNodes/yolo_evaluation_layer_1/strided_slice_10__218"
    input: "TFNodes/yolo_evaluation_layer_1/strided_slice_10__219"
    input: "TFNodes/yolo_evaluation_layer_1/strided_slice_10__220"
    input: "TFNodes/yolo_evaluation_layer_1/strided_slice_10__221"
    output: "TFNodes/yolo_evaluation_layer_1/strided_slice_10:0"
    name: "TFNodes/yolo_evaluation_layer_1/strided_slice_10"
    op_type: "Slice"
  }
  node {
    input: "TFNodes/yolo_evaluation_layer_1/strided_slice_10:0"
    output: "TFNodes/yolo_evaluation_layer_1/Exp:0"
    name: "TFNodes/yolo_evaluation_layer_1/Exp"
    op_type: "Exp"
  }
  node {
    input: "TFNodes/yolo_evaluation_layer_1/Exp:0"
    input: "TFNodes/yolo_evaluation_layer_1/Reshape:0"
    output: "TFNodes/yolo_evaluation_layer_1/mul_1:0"
    name: "TFNodes/yolo_evaluation_layer_1/mul_1"
    op_type: "Mul"
  }
  node {
    input: "TFNodes/yolo_evaluation_layer_1/mul_1:0"
    input: "TFNodes/yolo_evaluation_layer_1/Cast_2:0"
    output: "TFNodes/yolo_evaluation_layer_1/truediv_1:0"
    name: "TFNodes/yolo_evaluation_layer_1/truediv_1"
    op_type: "Div"
  }
  node {
    input: "TFNodes/yolo_evaluation_layer_1/truediv_1:0"
    input: "TFNodes/yolo_evaluation_layer_1/strided_slice_15__222"
    input: "TFNodes/yolo_evaluation_layer_1/strided_slice_15__223"
    input: "TFNodes/yolo_evaluation_layer_1/strided_slice_15__224"
    input: "TFNodes/yolo_evaluation_layer_1/strided_slice_15__225"
    output: "TFNodes/yolo_evaluation_layer_1/strided_slice_15:0"
    name: "TFNodes/yolo_evaluation_layer_1/strided_slice_15"
    op_type: "Slice"
  }
  node {
    input: "TFNodes/yolo_evaluation_layer_1/Reshape_3:0"
    input: "TFNodes/yolo_evaluation_layer_1/strided_slice_12__213"
    input: "TFNodes/yolo_evaluation_layer_1/strided_slice_12__214"
    input: "TFNodes/yolo_evaluation_layer_1/strided_slice_12__215"
    input: "TFNodes/yolo_evaluation_layer_1/strided_slice_12__216"
    output: "TFNodes/yolo_evaluation_layer_1/strided_slice_12:0"
    name: "TFNodes/yolo_evaluation_layer_1/strided_slice_12"
    op_type: "Slice"
  }
  node {
    input: "TFNodes/yolo_evaluation_layer_1/strided_slice_12:0"
    output: "TFNodes/yolo_evaluation_layer_1/Sigmoid_1:0"
    name: "TFNodes/yolo_evaluation_layer_1/Sigmoid_1"
    op_type: "Sigmoid"
  }
  node {
    input: "TFNodes/yolo_evaluation_layer_1/Reshape_3:0"
    input: "TFNodes/yolo_evaluation_layer_1/strided_slice_13__209"
    input: "TFNodes/yolo_evaluation_layer_1/strided_slice_13__210"
    input: "TFNodes/yolo_evaluation_layer_1/strided_slice_13__211"
    input: "TFNodes/yolo_evaluation_layer_1/strided_slice_13__212"
    output: "TFNodes/yolo_evaluation_layer_1/strided_slice_13:0"
    name: "TFNodes/yolo_evaluation_layer_1/strided_slice_13"
    op_type: "Slice"
  }
  node {
    input: "TFNodes/yolo_evaluation_layer_1/strided_slice_13:0"
    output: "TFNodes/yolo_evaluation_layer_1/Sigmoid_2:0"
    name: "TFNodes/yolo_evaluation_layer_1/Sigmoid_2"
    op_type: "Sigmoid"
  }
  node {
    input: "TFNodes/yolo_evaluation_layer_1/Sigmoid_1:0"
    input: "TFNodes/yolo_evaluation_layer_1/Sigmoid_2:0"
    output: "TFNodes/yolo_evaluation_layer_1/mul_6:0"
    name: "TFNodes/yolo_evaluation_layer_1/mul_6"
    op_type: "Mul"
  }
  node {
    input: "TFNodes/yolo_evaluation_layer_1/Reshape_3:0"
    input: "TFNodes/yolo_evaluation_layer_1/strided_slice_8__201"
    input: "TFNodes/yolo_evaluation_layer_1/strided_slice_8__202"
    input: "TFNodes/yolo_evaluation_layer_1/strided_slice_8__203"
    input: "TFNodes/yolo_evaluation_layer_1/strided_slice_8__204"
    output: "TFNodes/yolo_evaluation_layer_1/strided_slice_8:0"
    name: "TFNodes/yolo_evaluation_layer_1/strided_slice_8"
    op_type: "Slice"
  }
  node {
    input: "TFNodes/yolo_evaluation_layer_1/strided_slice_8:0"
    output: "TFNodes/yolo_evaluation_layer_1/Sigmoid:0"
    name: "TFNodes/yolo_evaluation_layer_1/Sigmoid"
    op_type: "Sigmoid"
  }
  node {
    input: "TFNodes/yolo_evaluation_layer_1/Reshape_4/shape:0"
    output: "TFNodes/yolo_evaluation_layer_1/Reshape_4__267:0"
    name: "TFNodes/yolo_evaluation_layer_1/Reshape_4__267"
    op_type: "Cast"
    attribute {
      name: "to"
      i: 7
      type: INT
    }
  }
  node {
    input: "TFNodes/yolo_evaluation_layer_1/Reshape_5/shape:0"
    output: "TFNodes/yolo_evaluation_layer_1/Reshape_5__217:0"
    name: "TFNodes/yolo_evaluation_layer_1/Reshape_5__217"
    op_type: "Cast"
    attribute {
      name: "to"
      i: 7
      type: INT
    }
  }
  node {
    input: "TFNodes/yolo_evaluation_layer_1/mul_6:0"
    input: "TFNodes/yolo_evaluation_layer_1/Reshape_5__217:0"
    output: "TFNodes/yolo_evaluation_layer_1/Reshape_5:0"
    name: "TFNodes/yolo_evaluation_layer_1/Reshape_5"
    op_type: "Reshape"
  }
  node {
    input: "TFNodes/yolo_evaluation_layer_1/Reshape_6/shape:0"
    output: "TFNodes/yolo_evaluation_layer_1/Reshape_6__9:0"
    name: "TFNodes/yolo_evaluation_layer_1/Reshape_6__9"
    op_type: "Cast"
    attribute {
      name: "to"
      i: 7
      type: INT
    }
  }
  node {
    input: "TFNodes/yolo_evaluation_layer_1/Const_2:0"
    input: "TFNodes/yolo_evaluation_layer_1/Reshape_6__9:0"
    output: "TFNodes/yolo_evaluation_layer_1/Reshape_6:0"
    name: "TFNodes/yolo_evaluation_layer_1/Reshape_6"
    op_type: "Reshape"
  }
  node {
    input: "TFNodes/yolo_evaluation_layer_1/Reshape_7/shape:0"
    output: "TFNodes/yolo_evaluation_layer_1/Reshape_7__84:0"
    name: "TFNodes/yolo_evaluation_layer_1/Reshape_7__84"
    op_type: "Cast"
    attribute {
      name: "to"
      i: 7
      type: INT
    }
  }
  node {
    input: "TFNodes/yolo_evaluation_layer_1/Reshape_8/shape:0"
    output: "TFNodes/yolo_evaluation_layer_1/Reshape_8__59:0"
    name: "TFNodes/yolo_evaluation_layer_1/Reshape_8__59"
    op_type: "Cast"
    attribute {
      name: "to"
      i: 7
      type: INT
    }
  }
  node {
    input: "TFNodes/yolo_evaluation_layer_1/Reshape_9/shape/0:0"
    output: "TFNodes/yolo_evaluation_layer_1/Reshape_9/shape_Unsqueeze__30:0"
    name: "TFNodes/yolo_evaluation_layer_1/Reshape_9/shape_Unsqueeze__30"
    op_type: "Unsqueeze"
    attribute {
      name: "axes"
      ints: 0
      type: INTS
    }
    domain: ""
  }
  node {
    input: "TFNodes/yolo_evaluation_layer_1/Reshape_9/shape/3:0"
    output: "TFNodes/yolo_evaluation_layer_1/Reshape_9/shape_Unsqueeze__33:0"
    name: "TFNodes/yolo_evaluation_layer_1/Reshape_9/shape_Unsqueeze__33"
    op_type: "Unsqueeze"
    attribute {
      name: "axes"
      ints: 0
      type: INTS
    }
    domain: ""
  }
  node {
    input: "TFNodes/yolo_evaluation_layer_1/Reshape_9/shape/4:0"
    output: "TFNodes/yolo_evaluation_layer_1/Reshape_9/shape_Unsqueeze__34:0"
    name: "TFNodes/yolo_evaluation_layer_1/Reshape_9/shape_Unsqueeze__34"
    op_type: "Unsqueeze"
    attribute {
      name: "axes"
      ints: 0
      type: INTS
    }
    domain: ""
  }
  node {
    input: "TFNodes/yolo_evaluation_layer_1/Reshape_9/shape_Unsqueeze__30:0"
    input: "TFNodes/yolo_evaluation_layer_1/Reshape_9/shape_Unsqueeze__31:0"
    input: "TFNodes/yolo_evaluation_layer_1/Reshape_9/shape_Unsqueeze__32:0"
    input: "TFNodes/yolo_evaluation_layer_1/Reshape_9/shape_Unsqueeze__33:0"
    input: "TFNodes/yolo_evaluation_layer_1/Reshape_9/shape_Unsqueeze__34:0"
    output: "TFNodes/yolo_evaluation_layer_1/Reshape_9/shape_Concat__35:0"
    name: "TFNodes/yolo_evaluation_layer_1/Reshape_9/shape_Concat__35"
    op_type: "Concat"
    attribute {
      name: "axis"
      i: 0
      type: INT
    }
    domain: ""
  }
  node {
    input: "TFNodes/yolo_evaluation_layer_1/Reshape_9/shape_Concat__35:0"
    output: "TFNodes/yolo_evaluation_layer_1/Reshape_9__86:0"
    name: "TFNodes/yolo_evaluation_layer_1/Reshape_9__86"
    op_type: "Cast"
    attribute {
      name: "to"
      i: 7
      type: INT
    }
  }
  node {
    input: "TFNodes/model_1/conv2d_13/BiasAdd:0"
    input: "TFNodes/yolo_evaluation_layer_1/Reshape_9__86:0"
    output: "TFNodes/yolo_evaluation_layer_1/Reshape_9:0"
    name: "TFNodes/yolo_evaluation_layer_1/Reshape_9"
    op_type: "Reshape"
  }
  node {
    input: "TFNodes/yolo_evaluation_layer_1/Reshape_9:0"
    input: "TFNodes/yolo_evaluation_layer_1/strided_slice_27__100"
    input: "TFNodes/yolo_evaluation_layer_1/strided_slice_27__101"
    input: "TFNodes/yolo_evaluation_layer_1/strided_slice_27__102"
    input: "TFNodes/yolo_evaluation_layer_1/strided_slice_27__103"
    output: "TFNodes/yolo_evaluation_layer_1/strided_slice_27:0"
    name: "TFNodes/yolo_evaluation_layer_1/strided_slice_27"
    op_type: "Slice"
  }
  node {
    input: "TFNodes/yolo_evaluation_layer_1/strided_slice_27:0"
    output: "TFNodes/yolo_evaluation_layer_1/Sigmoid_3:0"
    name: "TFNodes/yolo_evaluation_layer_1/Sigmoid_3"
    op_type: "Sigmoid"
  }
  node {
    input: "TFNodes/yolo_evaluation_layer_1/Reshape_9:0"
    input: "TFNodes/yolo_evaluation_layer_1/strided_slice_29__96"
    input: "TFNodes/yolo_evaluation_layer_1/strided_slice_29__97"
    input: "TFNodes/yolo_evaluation_layer_1/strided_slice_29__98"
    input: "TFNodes/yolo_evaluation_layer_1/strided_slice_29__99"
    output: "TFNodes/yolo_evaluation_layer_1/strided_slice_29:0"
    name: "TFNodes/yolo_evaluation_layer_1/strided_slice_29"
    op_type: "Slice"
  }
  node {
    input: "TFNodes/yolo_evaluation_layer_1/strided_slice_29:0"
    output: "TFNodes/yolo_evaluation_layer_1/Exp_1:0"
    name: "TFNodes/yolo_evaluation_layer_1/Exp_1"
    op_type: "Exp"
  }
  node {
    input: "TFNodes/yolo_evaluation_layer_1/Exp_1:0"
    input: "TFNodes/yolo_evaluation_layer_1/Reshape_6:0"
    output: "TFNodes/yolo_evaluation_layer_1/mul_7:0"
    name: "TFNodes/yolo_evaluation_layer_1/mul_7"
    op_type: "Mul"
  }
  node {
    input: "TFNodes/yolo_evaluation_layer_1/mul_7:0"
    input: "TFNodes/yolo_evaluation_layer_1/Cast_6:0"
    output: "TFNodes/yolo_evaluation_layer_1/truediv_9:0"
    name: "TFNodes/yolo_evaluation_layer_1/truediv_9"
    op_type: "Div"
  }
  node {
    input: "TFNodes/yolo_evaluation_layer_1/truediv_9:0"
    input: "TFNodes/yolo_evaluation_layer_1/strided_slice_34__192"
    input: "TFNodes/yolo_evaluation_layer_1/strided_slice_34__193"
    input: "TFNodes/yolo_evaluation_layer_1/strided_slice_34__194"
    input: "TFNodes/yolo_evaluation_layer_1/strided_slice_34__195"
    output: "TFNodes/yolo_evaluation_layer_1/strided_slice_34:0"
    name: "TFNodes/yolo_evaluation_layer_1/strided_slice_34"
    op_type: "Slice"
  }
  node {
    input: "TFNodes/yolo_evaluation_layer_1/Reshape_9:0"
    input: "TFNodes/yolo_evaluation_layer_1/strided_slice_31__91"
    input: "TFNodes/yolo_evaluation_layer_1/strided_slice_31__92"
    input: "TFNodes/yolo_evaluation_layer_1/strided_slice_31__93"
    input: "TFNodes/yolo_evaluation_layer_1/strided_slice_31__94"
    output: "TFNodes/yolo_evaluation_layer_1/strided_slice_31:0"
    name: "TFNodes/yolo_evaluation_layer_1/strided_slice_31"
    op_type: "Slice"
  }
  node {
    input: "TFNodes/yolo_evaluation_layer_1/strided_slice_31:0"
    output: "TFNodes/yolo_evaluation_layer_1/Sigmoid_4:0"
    name: "TFNodes/yolo_evaluation_layer_1/Sigmoid_4"
    op_type: "Sigmoid"
  }
  node {
    input: "TFNodes/yolo_evaluation_layer_1/Reshape_9:0"
    input: "TFNodes/yolo_evaluation_layer_1/strided_slice_32__87"
    input: "TFNodes/yolo_evaluation_layer_1/strided_slice_32__88"
    input: "TFNodes/yolo_evaluation_layer_1/strided_slice_32__89"
    input: "TFNodes/yolo_evaluation_layer_1/strided_slice_32__90"
    output: "TFNodes/yolo_evaluation_layer_1/strided_slice_32:0"
    name: "TFNodes/yolo_evaluation_layer_1/strided_slice_32"
    op_type: "Slice"
  }
  node {
    input: "TFNodes/yolo_evaluation_layer_1/strided_slice_32:0"
    output: "TFNodes/yolo_evaluation_layer_1/Sigmoid_5:0"
    name: "TFNodes/yolo_evaluation_layer_1/Sigmoid_5"
    op_type: "Sigmoid"
  }
  node {
    input: "TFNodes/yolo_evaluation_layer_1/Sigmoid_4:0"
    input: "TFNodes/yolo_evaluation_layer_1/Sigmoid_5:0"
    output: "TFNodes/yolo_evaluation_layer_1/mul_12:0"
    name: "TFNodes/yolo_evaluation_layer_1/mul_12"
    op_type: "Mul"
  }
  node {
    input: "TFNodes/yolo_evaluation_layer_1/mul_12:0"
    input: "TFNodes/yolo_evaluation_layer_1/Reshape_11__95:0"
    output: "TFNodes/yolo_evaluation_layer_1/Reshape_11:0"
    name: "TFNodes/yolo_evaluation_layer_1/Reshape_11"
    op_type: "Reshape"
  }
  node {
    input: "TFNodes/yolo_evaluation_layer_1/Reshape_5:0"
    input: "TFNodes/yolo_evaluation_layer_1/Reshape_11:0"
    output: "TFNodes/yolo_evaluation_layer_1/concat_7:0"
    name: "TFNodes/yolo_evaluation_layer_1/concat_7"
    op_type: "Concat"
    attribute {
      name: "axis"
      i: 0
      type: INT
    }
  }
  node {
    input: "TFNodes/yolo_evaluation_layer_1/Round_1__226"
    output: "TFNodes/yolo_evaluation_layer_1/Round_1__227:0"
    name: "TFNodes/yolo_evaluation_layer_1/Round_1__227"
    op_type: "Cast"
    attribute {
      name: "to"
      i: 1
      type: INT
    }
  }
  node {
    input: "TFNodes/yolo_evaluation_layer_1/mul_8:0"
    input: "TFNodes/yolo_evaluation_layer_1/Round_1__227:0"
    output: "TFNodes/yolo_evaluation_layer_1/Round_1__228:0"
    name: "Add__229"
    op_type: "Add"
    domain: ""
  }
  node {
    input: "TFNodes/yolo_evaluation_layer_1/Round_1__228:0"
    output: "TFNodes/yolo_evaluation_layer_1/Round_1:0"
    name: "TFNodes/yolo_evaluation_layer_1/Round_1"
    op_type: "Ceil"
  }
  node {
    input: "TFNodes/yolo_evaluation_layer_1/Cast_7:0"
    input: "TFNodes/yolo_evaluation_layer_1/Round_1:0"
    output: "TFNodes/yolo_evaluation_layer_1/sub_3:0"
    name: "TFNodes/yolo_evaluation_layer_1/sub_3"
    op_type: "Sub"
  }
  node {
    input: "TFNodes/yolo_evaluation_layer_1/sub_3:0"
    input: "TFNodes/yolo_evaluation_layer_1/truediv_11/y:0"
    output: "TFNodes/yolo_evaluation_layer_1/truediv_11:0"
    name: "TFNodes/yolo_evaluation_layer_1/truediv_11"
    op_type: "Div"
  }
  node {
    input: "TFNodes/yolo_evaluation_layer_1/truediv_11:0"
    input: "TFNodes/yolo_evaluation_layer_1/Cast_7:0"
    output: "TFNodes/yolo_evaluation_layer_1/truediv_12:0"
    name: "TFNodes/yolo_evaluation_layer_1/truediv_12"
    op_type: "Div"
  }
  node {
    input: "TFNodes/yolo_evaluation_layer_1/Cast_7:0"
    input: "TFNodes/yolo_evaluation_layer_1/Round_1:0"
    output: "TFNodes/yolo_evaluation_layer_1/truediv_13:0"
    name: "TFNodes/yolo_evaluation_layer_1/truediv_13"
    op_type: "Div"
  }
  node {
    input: "TFNodes/yolo_evaluation_layer_1/strided_slice_34:0"
    input: "TFNodes/yolo_evaluation_layer_1/truediv_13:0"
    output: "TFNodes/yolo_evaluation_layer_1/mul_10:0"
    name: "TFNodes/yolo_evaluation_layer_1/mul_10"
    op_type: "Mul"
  }
  node {
    input: "TFNodes/yolo_evaluation_layer_1/mul_10:0"
    input: "TFNodes/yolo_evaluation_layer_1/truediv_14/y:0"
    output: "TFNodes/yolo_evaluation_layer_1/truediv_14:0"
    name: "TFNodes/yolo_evaluation_layer_1/truediv_14"
    op_type: "Div"
  }
  node {
    input: "TFNodes/yolo_evaluation_layer_1/mul_10:0"
    input: "TFNodes/yolo_evaluation_layer_1/truediv_15/y:0"
    output: "TFNodes/yolo_evaluation_layer_1/truediv_15:0"
    name: "TFNodes/yolo_evaluation_layer_1/truediv_15"
    op_type: "Div"
  }
  node {
    input: "TFNodes/yolo_evaluation_layer_1/Round__246"
    output: "TFNodes/yolo_evaluation_layer_1/Round__247:0"
    name: "TFNodes/yolo_evaluation_layer_1/Round__247"
    op_type: "Cast"
    attribute {
      name: "to"
      i: 1
      type: INT
    }
  }
  node {
    input: "TFNodes/yolo_evaluation_layer_1/mul_2:0"
    input: "TFNodes/yolo_evaluation_layer_1/Round__247:0"
    output: "TFNodes/yolo_evaluation_layer_1/Round__248:0"
    name: "Add__249"
    op_type: "Add"
    domain: ""
  }
  node {
    input: "TFNodes/yolo_evaluation_layer_1/Round__248:0"
    output: "TFNodes/yolo_evaluation_layer_1/Round:0"
    name: "TFNodes/yolo_evaluation_layer_1/Round"
    op_type: "Ceil"
  }
  node {
    input: "TFNodes/yolo_evaluation_layer_1/Cast_3:0"
    input: "TFNodes/yolo_evaluation_layer_1/Round:0"
    output: "TFNodes/yolo_evaluation_layer_1/sub:0"
    name: "TFNodes/yolo_evaluation_layer_1/sub"
    op_type: "Sub"
  }
  node {
    input: "TFNodes/yolo_evaluation_layer_1/sub:0"
    input: "TFNodes/yolo_evaluation_layer_1/truediv_3/y:0"
    output: "TFNodes/yolo_evaluation_layer_1/truediv_3:0"
    name: "TFNodes/yolo_evaluation_layer_1/truediv_3"
    op_type: "Div"
  }
  node {
    input: "TFNodes/yolo_evaluation_layer_1/truediv_3:0"
    input: "TFNodes/yolo_evaluation_layer_1/Cast_3:0"
    output: "TFNodes/yolo_evaluation_layer_1/truediv_4:0"
    name: "TFNodes/yolo_evaluation_layer_1/truediv_4"
    op_type: "Div"
  }
  node {
    input: "TFNodes/yolo_evaluation_layer_1/Cast_3:0"
    input: "TFNodes/yolo_evaluation_layer_1/Round:0"
    output: "TFNodes/yolo_evaluation_layer_1/truediv_5:0"
    name: "TFNodes/yolo_evaluation_layer_1/truediv_5"
    op_type: "Div"
  }
  node {
    input: "TFNodes/yolo_evaluation_layer_1/strided_slice_15:0"
    input: "TFNodes/yolo_evaluation_layer_1/truediv_5:0"
    output: "TFNodes/yolo_evaluation_layer_1/mul_4:0"
    name: "TFNodes/yolo_evaluation_layer_1/mul_4"
    op_type: "Mul"
  }
  node {
    input: "TFNodes/yolo_evaluation_layer_1/mul_4:0"
    input: "TFNodes/yolo_evaluation_layer_1/truediv_6/y:0"
    output: "TFNodes/yolo_evaluation_layer_1/truediv_6:0"
    name: "TFNodes/yolo_evaluation_layer_1/truediv_6"
    op_type: "Div"
  }
  node {
    input: "TFNodes/yolo_evaluation_layer_1/mul_4:0"
    input: "TFNodes/yolo_evaluation_layer_1/truediv_7/y:0"
    output: "TFNodes/yolo_evaluation_layer_1/truediv_7:0"
    name: "TFNodes/yolo_evaluation_layer_1/truediv_7"
    op_type: "Div"
  }
  node {
    input: "TFNodes/yolo_evaluation_layer_1/Tile/multiples/0:0"
    output: "TFNodes/yolo_evaluation_layer_1/Tile/multiples_Unsqueeze__163:0"
    name: "TFNodes/yolo_evaluation_layer_1/Tile/multiples_Unsqueeze__163"
    op_type: "Unsqueeze"
    attribute {
      name: "axes"
      ints: 0
      type: INTS
    }
    domain: ""
  }
  node {
    input: "TFNodes/yolo_evaluation_layer_1/Tile/multiples/2:0"
    output: "TFNodes/yolo_evaluation_layer_1/Tile/multiples_Unsqueeze__165:0"
    name: "TFNodes/yolo_evaluation_layer_1/Tile/multiples_Unsqueeze__165"
    op_type: "Unsqueeze"
    attribute {
      name: "axes"
      ints: 0
      type: INTS
    }
    domain: ""
  }
  node {
    input: "TFNodes/yolo_evaluation_layer_1/Tile/multiples/3:0"
    output: "TFNodes/yolo_evaluation_layer_1/Tile/multiples_Unsqueeze__166:0"
    name: "TFNodes/yolo_evaluation_layer_1/Tile/multiples_Unsqueeze__166"
    op_type: "Unsqueeze"
    attribute {
      name: "axes"
      ints: 0
      type: INTS
    }
    domain: ""
  }
  node {
    input: "TFNodes/yolo_evaluation_layer_1/Tile/multiples_Unsqueeze__163:0"
    input: "TFNodes/yolo_evaluation_layer_1/Tile/multiples_Unsqueeze__164:0"
    input: "TFNodes/yolo_evaluation_layer_1/Tile/multiples_Unsqueeze__165:0"
    input: "TFNodes/yolo_evaluation_layer_1/Tile/multiples_Unsqueeze__166:0"
    output: "TFNodes/yolo_evaluation_layer_1/Tile/multiples_Concat__167:0"
    name: "TFNodes/yolo_evaluation_layer_1/Tile/multiples_Concat__167"
    op_type: "Concat"
    attribute {
      name: "axis"
      i: 0
      type: INT
    }
    domain: ""
  }
  node {
    input: "TFNodes/yolo_evaluation_layer_1/Tile/multiples_Concat__167:0"
    output: "TFNodes/yolo_evaluation_layer_1/Tile__182:0"
    name: "TFNodes/yolo_evaluation_layer_1/Tile__182"
    op_type: "Cast"
    attribute {
      name: "to"
      i: 7
      type: INT
    }
  }
  node {
    input: "TFNodes/yolo_evaluation_layer_1/Tile_1/multiples/1:0"
    output: "TFNodes/yolo_evaluation_layer_1/Tile_1/multiples_Unsqueeze__139:0"
    name: "TFNodes/yolo_evaluation_layer_1/Tile_1/multiples_Unsqueeze__139"
    op_type: "Unsqueeze"
    attribute {
      name: "axes"
      ints: 0
      type: INTS
    }
    domain: ""
  }
  node {
    input: "TFNodes/yolo_evaluation_layer_1/Tile_1/multiples/2:0"
    output: "TFNodes/yolo_evaluation_layer_1/Tile_1/multiples_Unsqueeze__140:0"
    name: "TFNodes/yolo_evaluation_layer_1/Tile_1/multiples_Unsqueeze__140"
    op_type: "Unsqueeze"
    attribute {
      name: "axes"
      ints: 0
      type: INTS
    }
    domain: ""
  }
  node {
    input: "TFNodes/yolo_evaluation_layer_1/Tile_1/multiples/3:0"
    output: "TFNodes/yolo_evaluation_layer_1/Tile_1/multiples_Unsqueeze__141:0"
    name: "TFNodes/yolo_evaluation_layer_1/Tile_1/multiples_Unsqueeze__141"
    op_type: "Unsqueeze"
    attribute {
      name: "axes"
      ints: 0
      type: INTS
    }
    domain: ""
  }
  node {
    input: "TFNodes/yolo_evaluation_layer_1/Tile_1/multiples_Unsqueeze__138:0"
    input: "TFNodes/yolo_evaluation_layer_1/Tile_1/multiples_Unsqueeze__139:0"
    input: "TFNodes/yolo_evaluation_layer_1/Tile_1/multiples_Unsqueeze__140:0"
    input: "TFNodes/yolo_evaluation_layer_1/Tile_1/multiples_Unsqueeze__141:0"
    output: "TFNodes/yolo_evaluation_layer_1/Tile_1/multiples_Concat__142:0"
    name: "TFNodes/yolo_evaluation_layer_1/Tile_1/multiples_Concat__142"
    op_type: "Concat"
    attribute {
      name: "axis"
      i: 0
      type: INT
    }
    domain: ""
  }
  node {
    input: "TFNodes/yolo_evaluation_layer_1/Tile_1/multiples_Concat__142:0"
    output: "TFNodes/yolo_evaluation_layer_1/Tile_1__157:0"
    name: "TFNodes/yolo_evaluation_layer_1/Tile_1__157"
    op_type: "Cast"
    attribute {
      name: "to"
      i: 7
      type: INT
    }
  }
  node {
    input: "TFNodes/yolo_evaluation_layer_1/Tile_2/multiples/0:0"
    output: "TFNodes/yolo_evaluation_layer_1/Tile_2/multiples_Unsqueeze__66:0"
    name: "TFNodes/yolo_evaluation_layer_1/Tile_2/multiples_Unsqueeze__66"
    op_type: "Unsqueeze"
    attribute {
      name: "axes"
      ints: 0
      type: INTS
    }
    domain: ""
  }
  node {
    input: "TFNodes/yolo_evaluation_layer_1/Tile_2/multiples/2:0"
    output: "TFNodes/yolo_evaluation_layer_1/Tile_2/multiples_Unsqueeze__68:0"
    name: "TFNodes/yolo_evaluation_layer_1/Tile_2/multiples_Unsqueeze__68"
    op_type: "Unsqueeze"
    attribute {
      name: "axes"
      ints: 0
      type: INTS
    }
    domain: ""
  }
  node {
    input: "TFNodes/yolo_evaluation_layer_1/Tile_2/multiples/3:0"
    output: "TFNodes/yolo_evaluation_layer_1/Tile_2/multiples_Unsqueeze__69:0"
    name: "TFNodes/yolo_evaluation_layer_1/Tile_2/multiples_Unsqueeze__69"
    op_type: "Unsqueeze"
    attribute {
      name: "axes"
      ints: 0
      type: INTS
    }
    domain: ""
  }
  node {
    input: "TFNodes/yolo_evaluation_layer_1/Tile_2/multiples_Unsqueeze__66:0"
    input: "TFNodes/yolo_evaluation_layer_1/Tile_2/multiples_Unsqueeze__67:0"
    input: "TFNodes/yolo_evaluation_layer_1/Tile_2/multiples_Unsqueeze__68:0"
    input: "TFNodes/yolo_evaluation_layer_1/Tile_2/multiples_Unsqueeze__69:0"
    output: "TFNodes/yolo_evaluation_layer_1/Tile_2/multiples_Concat__70:0"
    name: "TFNodes/yolo_evaluation_layer_1/Tile_2/multiples_Concat__70"
    op_type: "Concat"
    attribute {
      name: "axis"
      i: 0
      type: INT
    }
    domain: ""
  }
  node {
    input: "TFNodes/yolo_evaluation_layer_1/Tile_2/multiples_Concat__70:0"
    output: "TFNodes/yolo_evaluation_layer_1/Tile_2__85:0"
    name: "TFNodes/yolo_evaluation_layer_1/Tile_2__85"
    op_type: "Cast"
    attribute {
      name: "to"
      i: 7
      type: INT
    }
  }
  node {
    input: "TFNodes/yolo_evaluation_layer_1/Tile_3/multiples/1:0"
    output: "TFNodes/yolo_evaluation_layer_1/Tile_3/multiples_Unsqueeze__42:0"
    name: "TFNodes/yolo_evaluation_layer_1/Tile_3/multiples_Unsqueeze__42"
    op_type: "Unsqueeze"
    attribute {
      name: "axes"
      ints: 0
      type: INTS
    }
    domain: ""
  }
  node {
    input: "TFNodes/yolo_evaluation_layer_1/Tile_3/multiples/2:0"
    output: "TFNodes/yolo_evaluation_layer_1/Tile_3/multiples_Unsqueeze__43:0"
    name: "TFNodes/yolo_evaluation_layer_1/Tile_3/multiples_Unsqueeze__43"
    op_type: "Unsqueeze"
    attribute {
      name: "axes"
      ints: 0
      type: INTS
    }
    domain: ""
  }
  node {
    input: "TFNodes/yolo_evaluation_layer_1/Tile_3/multiples/3:0"
    output: "TFNodes/yolo_evaluation_layer_1/Tile_3/multiples_Unsqueeze__44:0"
    name: "TFNodes/yolo_evaluation_layer_1/Tile_3/multiples_Unsqueeze__44"
    op_type: "Unsqueeze"
    attribute {
      name: "axes"
      ints: 0
      type: INTS
    }
    domain: ""
  }
  node {
    input: "TFNodes/yolo_evaluation_layer_1/Tile_3/multiples_Unsqueeze__41:0"
    input: "TFNodes/yolo_evaluation_layer_1/Tile_3/multiples_Unsqueeze__42:0"
    input: "TFNodes/yolo_evaluation_layer_1/Tile_3/multiples_Unsqueeze__43:0"
    input: "TFNodes/yolo_evaluation_layer_1/Tile_3/multiples_Unsqueeze__44:0"
    output: "TFNodes/yolo_evaluation_layer_1/Tile_3/multiples_Concat__45:0"
    name: "TFNodes/yolo_evaluation_layer_1/Tile_3/multiples_Concat__45"
    op_type: "Concat"
    attribute {
      name: "axis"
      i: 0
      type: INT
    }
    domain: ""
  }
  node {
    input: "TFNodes/yolo_evaluation_layer_1/Tile_3/multiples_Concat__45:0"
    output: "TFNodes/yolo_evaluation_layer_1/Tile_3__60:0"
    name: "TFNodes/yolo_evaluation_layer_1/Tile_3__60"
    op_type: "Cast"
    attribute {
      name: "to"
      i: 7
      type: INT
    }
  }
  node {
    input: "TFNodes/yolo_evaluation_layer_1/arange/delta:0"
    output: "TFNodes/yolo_evaluation_layer_1/arange__173_cast_delta:0"
    name: "TFNodes/yolo_evaluation_layer_1/arange__173_cast_delta"
    op_type: "Cast"
    attribute {
      name: "to"
      i: 1
      type: INT
    }
    domain: ""
  }
  node {
    input: "TFNodes/yolo_evaluation_layer_1/arange__173_cast_diff:0"
    input: "TFNodes/yolo_evaluation_layer_1/arange__173_cast_delta:0"
    output: "TFNodes/yolo_evaluation_layer_1/arange__173_div:0"
    name: "TFNodes/yolo_evaluation_layer_1/arange__173_div"
    op_type: "Div"
    domain: ""
  }
  node {
    input: "TFNodes/yolo_evaluation_layer_1/arange__173_div:0"
    output: "TFNodes/yolo_evaluation_layer_1/arange__173_ceil:0"
    name: "TFNodes/yolo_evaluation_layer_1/arange__173_ceil"
    op_type: "Ceil"
    domain: ""
  }
  node {
    input: "TFNodes/yolo_evaluation_layer_1/arange__173_ceil:0"
    output: "TFNodes/yolo_evaluation_layer_1/arange__173_trip_cnt:0"
    name: "TFNodes/yolo_evaluation_layer_1/arange__173_trip_cnt"
    op_type: "Cast"
    attribute {
      name: "to"
      i: 7
      type: INT
    }
    domain: ""
  }
  node {
    input: "TFNodes/yolo_evaluation_layer_1/arange__173_trip_cnt:0"
    input: "TFNodes/yolo_evaluation_layer_1/arange__173_cond"
    input: "TFNodes/yolo_evaluation_layer_1/arange/start:0"
    output: "TFNodes/yolo_evaluation_layer_1/arange__173_loop:0"
    output: "TFNodes/yolo_evaluation_layer_1/arange__173_loop:1"
    name: "TFNodes/yolo_evaluation_layer_1/arange__173_loop"
    op_type: "Loop"
    attribute {
      name: "body"
      g {
        node {
          input: "prev"
          input: "TFNodes/yolo_evaluation_layer_1/arange/delta:0"
          output: "current"
          name: "add__179"
          op_type: "Add"
          domain: ""
        }
        node {
          input: "prev"
          output: "range"
          name: "Identity__180"
          op_type: "Identity"
          domain: ""
        }
        node {
          input: "cond"
          output: "cond_out"
          name: "Identity__178"
          op_type: "Identity"
          domain: ""
        }
        name: "tf2onnx"
        doc_string: "graph for TFNodes/yolo_evaluation_layer_1/arange__173_loop body"
        input {
          name: "i"
          type {
            tensor_type {
              elem_type: 7
              shape {
              }
            }
          }
        }
        input {
          name: "cond"
          type {
            tensor_type {
              elem_type: 9
              shape {
              }
            }
          }
        }
        input {
          name: "prev"
          type {
            tensor_type {
              elem_type: 6
              shape {
              }
            }
          }
        }
        output {
          name: "cond_out"
          type {
            tensor_type {
              elem_type: 9
              shape {
              }
            }
          }
        }
        output {
          name: "current"
          type {
            tensor_type {
              elem_type: 6
              shape {
              }
            }
          }
        }
        output {
          name: "range"
          type {
            tensor_type {
              elem_type: 6
              shape {
              }
            }
          }
        }
      }
      type: GRAPH
    }
    domain: ""
  }
  node {
    input: "TFNodes/yolo_evaluation_layer_1/arange__173_loop:1"
    input: "TFNodes/yolo_evaluation_layer_1/Reshape_1__181:0"
    output: "TFNodes/yolo_evaluation_layer_1/Reshape_1:0"
    name: "TFNodes/yolo_evaluation_layer_1/Reshape_1"
    op_type: "Reshape"
    doc_string: ""
    domain: ""
  }
  node {
    input: "TFNodes/yolo_evaluation_layer_1/Reshape_1:0"
    input: "TFNodes/yolo_evaluation_layer_1/Tile__182:0"
    output: "TFNodes/yolo_evaluation_layer_1/Tile:0"
    name: "TFNodes/yolo_evaluation_layer_1/Tile"
    op_type: "Tile"
  }
  node {
    input: "TFNodes/yolo_evaluation_layer_1/arange_1/delta:0"
    output: "TFNodes/yolo_evaluation_layer_1/arange_1__148_cast_delta:0"
    name: "TFNodes/yolo_evaluation_layer_1/arange_1__148_cast_delta"
    op_type: "Cast"
    attribute {
      name: "to"
      i: 1
      type: INT
    }
    domain: ""
  }
  node {
    input: "TFNodes/yolo_evaluation_layer_1/arange_1__148_cast_diff:0"
    input: "TFNodes/yolo_evaluation_layer_1/arange_1__148_cast_delta:0"
    output: "TFNodes/yolo_evaluation_layer_1/arange_1__148_div:0"
    name: "TFNodes/yolo_evaluation_layer_1/arange_1__148_div"
    op_type: "Div"
    domain: ""
  }
  node {
    input: "TFNodes/yolo_evaluation_layer_1/arange_1__148_div:0"
    output: "TFNodes/yolo_evaluation_layer_1/arange_1__148_ceil:0"
    name: "TFNodes/yolo_evaluation_layer_1/arange_1__148_ceil"
    op_type: "Ceil"
    domain: ""
  }
  node {
    input: "TFNodes/yolo_evaluation_layer_1/arange_1__148_ceil:0"
    output: "TFNodes/yolo_evaluation_layer_1/arange_1__148_trip_cnt:0"
    name: "TFNodes/yolo_evaluation_layer_1/arange_1__148_trip_cnt"
    op_type: "Cast"
    attribute {
      name: "to"
      i: 7
      type: INT
    }
    domain: ""
  }
  node {
    input: "TFNodes/yolo_evaluation_layer_1/arange_1__148_trip_cnt:0"
    input: "TFNodes/yolo_evaluation_layer_1/arange_1__148_cond"
    input: "TFNodes/yolo_evaluation_layer_1/arange_1/start:0"
    output: "TFNodes/yolo_evaluation_layer_1/arange_1__148_loop:0"
    output: "TFNodes/yolo_evaluation_layer_1/arange_1__148_loop:1"
    name: "TFNodes/yolo_evaluation_layer_1/arange_1__148_loop"
    op_type: "Loop"
    attribute {
      name: "body"
      g {
        node {
          input: "prev"
          input: "TFNodes/yolo_evaluation_layer_1/arange_1/delta:0"
          output: "current"
          name: "add__154"
          op_type: "Add"
          domain: ""
        }
        node {
          input: "prev"
          output: "range"
          name: "Identity__155"
          op_type: "Identity"
          domain: ""
        }
        node {
          input: "cond"
          output: "cond_out"
          name: "Identity__153"
          op_type: "Identity"
          domain: ""
        }
        name: "tf2onnx"
        doc_string: "graph for TFNodes/yolo_evaluation_layer_1/arange_1__148_loop body"
        input {
          name: "i"
          type {
            tensor_type {
              elem_type: 7
              shape {
              }
            }
          }
        }
        input {
          name: "cond"
          type {
            tensor_type {
              elem_type: 9
              shape {
              }
            }
          }
        }
        input {
          name: "prev"
          type {
            tensor_type {
              elem_type: 6
              shape {
              }
            }
          }
        }
        output {
          name: "cond_out"
          type {
            tensor_type {
              elem_type: 9
              shape {
              }
            }
          }
        }
        output {
          name: "current"
          type {
            tensor_type {
              elem_type: 6
              shape {
              }
            }
          }
        }
        output {
          name: "range"
          type {
            tensor_type {
              elem_type: 6
              shape {
              }
            }
          }
        }
      }
      type: GRAPH
    }
    domain: ""
  }
  node {
    input: "TFNodes/yolo_evaluation_layer_1/arange_1__148_loop:1"
    input: "TFNodes/yolo_evaluation_layer_1/Reshape_2__156:0"
    output: "TFNodes/yolo_evaluation_layer_1/Reshape_2:0"
    name: "TFNodes/yolo_evaluation_layer_1/Reshape_2"
    op_type: "Reshape"
    doc_string: ""
    domain: ""
  }
  node {
    input: "TFNodes/yolo_evaluation_layer_1/Reshape_2:0"
    input: "TFNodes/yolo_evaluation_layer_1/Tile_1__157:0"
    output: "TFNodes/yolo_evaluation_layer_1/Tile_1:0"
    name: "TFNodes/yolo_evaluation_layer_1/Tile_1"
    op_type: "Tile"
  }
  node {
    input: "TFNodes/yolo_evaluation_layer_1/Tile_1:0"
    input: "TFNodes/yolo_evaluation_layer_1/Tile:0"
    output: "TFNodes/yolo_evaluation_layer_1/concat:0"
    name: "TFNodes/yolo_evaluation_layer_1/concat"
    op_type: "Concat"
    attribute {
      name: "axis"
      i: 3
      type: INT
    }
  }
  node {
    input: "TFNodes/yolo_evaluation_layer_1/concat:0"
    output: "TFNodes/yolo_evaluation_layer_1/Cast:0"
    name: "TFNodes/yolo_evaluation_layer_1/Cast"
    op_type: "Cast"
    attribute {
      name: "to"
      i: 1
      type: INT
    }
  }
  node {
    input: "TFNodes/yolo_evaluation_layer_1/Sigmoid:0"
    input: "TFNodes/yolo_evaluation_layer_1/Cast:0"
    output: "TFNodes/yolo_evaluation_layer_1/add:0"
    name: "TFNodes/yolo_evaluation_layer_1/add"
    op_type: "Add"
  }
  node {
    input: "TFNodes/yolo_evaluation_layer_1/add:0"
    input: "TFNodes/yolo_evaluation_layer_1/Cast_1:0"
    output: "TFNodes/yolo_evaluation_layer_1/truediv:0"
    name: "TFNodes/yolo_evaluation_layer_1/truediv"
    op_type: "Div"
  }
  node {
    input: "TFNodes/yolo_evaluation_layer_1/truediv:0"
    input: "TFNodes/yolo_evaluation_layer_1/strided_slice_14__205"
    input: "TFNodes/yolo_evaluation_layer_1/strided_slice_14__206"
    input: "TFNodes/yolo_evaluation_layer_1/strided_slice_14__207"
    input: "TFNodes/yolo_evaluation_layer_1/strided_slice_14__208"
    output: "TFNodes/yolo_evaluation_layer_1/strided_slice_14:0"
    name: "TFNodes/yolo_evaluation_layer_1/strided_slice_14"
    op_type: "Slice"
  }
  node {
    input: "TFNodes/yolo_evaluation_layer_1/strided_slice_14:0"
    input: "TFNodes/yolo_evaluation_layer_1/truediv_4:0"
    output: "TFNodes/yolo_evaluation_layer_1/sub_1:0"
    name: "TFNodes/yolo_evaluation_layer_1/sub_1"
    op_type: "Sub"
  }
  node {
    input: "TFNodes/yolo_evaluation_layer_1/sub_1:0"
    input: "TFNodes/yolo_evaluation_layer_1/truediv_5:0"
    output: "TFNodes/yolo_evaluation_layer_1/mul_3:0"
    name: "TFNodes/yolo_evaluation_layer_1/mul_3"
    op_type: "Mul"
  }
  node {
    input: "TFNodes/yolo_evaluation_layer_1/mul_3:0"
    input: "TFNodes/yolo_evaluation_layer_1/truediv_7:0"
    output: "TFNodes/yolo_evaluation_layer_1/add_1:0"
    name: "TFNodes/yolo_evaluation_layer_1/add_1"
    op_type: "Add"
  }
  node {
    input: "TFNodes/yolo_evaluation_layer_1/add_1:0"
    input: "TFNodes/yolo_evaluation_layer_1/strided_slice_18__262"
    input: "TFNodes/yolo_evaluation_layer_1/strided_slice_18__263"
    input: "TFNodes/yolo_evaluation_layer_1/strided_slice_18__264"
    input: "TFNodes/yolo_evaluation_layer_1/strided_slice_18__265"
    output: "TFNodes/yolo_evaluation_layer_1/strided_slice_18:0"
    name: "TFNodes/yolo_evaluation_layer_1/strided_slice_18"
    op_type: "Slice"
  }
  node {
    input: "TFNodes/yolo_evaluation_layer_1/add_1:0"
    input: "TFNodes/yolo_evaluation_layer_1/strided_slice_19__258"
    input: "TFNodes/yolo_evaluation_layer_1/strided_slice_19__259"
    input: "TFNodes/yolo_evaluation_layer_1/strided_slice_19__260"
    input: "TFNodes/yolo_evaluation_layer_1/strided_slice_19__261"
    output: "TFNodes/yolo_evaluation_layer_1/strided_slice_19:0"
    name: "TFNodes/yolo_evaluation_layer_1/strided_slice_19"
    op_type: "Slice"
  }
  node {
    input: "TFNodes/yolo_evaluation_layer_1/mul_3:0"
    input: "TFNodes/yolo_evaluation_layer_1/truediv_6:0"
    output: "TFNodes/yolo_evaluation_layer_1/sub_2:0"
    name: "TFNodes/yolo_evaluation_layer_1/sub_2"
    op_type: "Sub"
  }
  node {
    input: "TFNodes/yolo_evaluation_layer_1/sub_2:0"
    input: "TFNodes/yolo_evaluation_layer_1/strided_slice_16__254"
    input: "TFNodes/yolo_evaluation_layer_1/strided_slice_16__255"
    input: "TFNodes/yolo_evaluation_layer_1/strided_slice_16__256"
    input: "TFNodes/yolo_evaluation_layer_1/strided_slice_16__257"
    output: "TFNodes/yolo_evaluation_layer_1/strided_slice_16:0"
    name: "TFNodes/yolo_evaluation_layer_1/strided_slice_16"
    op_type: "Slice"
  }
  node {
    input: "TFNodes/yolo_evaluation_layer_1/sub_2:0"
    input: "TFNodes/yolo_evaluation_layer_1/strided_slice_17__250"
    input: "TFNodes/yolo_evaluation_layer_1/strided_slice_17__251"
    input: "TFNodes/yolo_evaluation_layer_1/strided_slice_17__252"
    input: "TFNodes/yolo_evaluation_layer_1/strided_slice_17__253"
    output: "TFNodes/yolo_evaluation_layer_1/strided_slice_17:0"
    name: "TFNodes/yolo_evaluation_layer_1/strided_slice_17"
    op_type: "Slice"
  }
  node {
    input: "TFNodes/yolo_evaluation_layer_1/strided_slice_16:0"
    input: "TFNodes/yolo_evaluation_layer_1/strided_slice_17:0"
    input: "TFNodes/yolo_evaluation_layer_1/strided_slice_18:0"
    input: "TFNodes/yolo_evaluation_layer_1/strided_slice_19:0"
    output: "TFNodes/yolo_evaluation_layer_1/concat_1:0"
    name: "TFNodes/yolo_evaluation_layer_1/concat_1"
    op_type: "Concat"
    attribute {
      name: "axis"
      i: 4
      type: INT
    }
  }
  node {
    input: "TFNodes/yolo_evaluation_layer_1/concat_1:0"
    input: "TFNodes/yolo_evaluation_layer_1/concat_2:0"
    output: "TFNodes/yolo_evaluation_layer_1/mul_5:0"
    name: "TFNodes/yolo_evaluation_layer_1/mul_5"
    op_type: "Mul"
  }
  node {
    input: "TFNodes/yolo_evaluation_layer_1/mul_5:0"
    input: "TFNodes/yolo_evaluation_layer_1/Reshape_4__267:0"
    output: "TFNodes/yolo_evaluation_layer_1/Reshape_4:0"
    name: "TFNodes/yolo_evaluation_layer_1/Reshape_4"
    op_type: "Reshape"
  }
  node {
    input: "TFNodes/yolo_evaluation_layer_1/arange_2/delta:0"
    output: "TFNodes/yolo_evaluation_layer_1/arange_2__76_cast_delta:0"
    name: "TFNodes/yolo_evaluation_layer_1/arange_2__76_cast_delta"
    op_type: "Cast"
    attribute {
      name: "to"
      i: 1
      type: INT
    }
    domain: ""
  }
  node {
    input: "TFNodes/yolo_evaluation_layer_1/arange_2__76_cast_diff:0"
    input: "TFNodes/yolo_evaluation_layer_1/arange_2__76_cast_delta:0"
    output: "TFNodes/yolo_evaluation_layer_1/arange_2__76_div:0"
    name: "TFNodes/yolo_evaluation_layer_1/arange_2__76_div"
    op_type: "Div"
    domain: ""
  }
  node {
    input: "TFNodes/yolo_evaluation_layer_1/arange_2__76_div:0"
    output: "TFNodes/yolo_evaluation_layer_1/arange_2__76_ceil:0"
    name: "TFNodes/yolo_evaluation_layer_1/arange_2__76_ceil"
    op_type: "Ceil"
    domain: ""
  }
  node {
    input: "TFNodes/yolo_evaluation_layer_1/arange_2__76_ceil:0"
    output: "TFNodes/yolo_evaluation_layer_1/arange_2__76_trip_cnt:0"
    name: "TFNodes/yolo_evaluation_layer_1/arange_2__76_trip_cnt"
    op_type: "Cast"
    attribute {
      name: "to"
      i: 7
      type: INT
    }
    domain: ""
  }
  node {
    input: "TFNodes/yolo_evaluation_layer_1/arange_2__76_trip_cnt:0"
    input: "TFNodes/yolo_evaluation_layer_1/arange_2__76_cond"
    input: "TFNodes/yolo_evaluation_layer_1/arange_2/start:0"
    output: "TFNodes/yolo_evaluation_layer_1/arange_2__76_loop:0"
    output: "TFNodes/yolo_evaluation_layer_1/arange_2__76_loop:1"
    name: "TFNodes/yolo_evaluation_layer_1/arange_2__76_loop"
    op_type: "Loop"
    attribute {
      name: "body"
      g {
        node {
          input: "prev"
          input: "TFNodes/yolo_evaluation_layer_1/arange_2/delta:0"
          output: "current"
          name: "add__82"
          op_type: "Add"
          domain: ""
        }
        node {
          input: "prev"
          output: "range"
          name: "Identity__83"
          op_type: "Identity"
          domain: ""
        }
        node {
          input: "cond"
          output: "cond_out"
          name: "Identity__81"
          op_type: "Identity"
          domain: ""
        }
        name: "tf2onnx"
        doc_string: "graph for TFNodes/yolo_evaluation_layer_1/arange_2__76_loop body"
        input {
          name: "i"
          type {
            tensor_type {
              elem_type: 7
              shape {
              }
            }
          }
        }
        input {
          name: "cond"
          type {
            tensor_type {
              elem_type: 9
              shape {
              }
            }
          }
        }
        input {
          name: "prev"
          type {
            tensor_type {
              elem_type: 6
              shape {
              }
            }
          }
        }
        output {
          name: "cond_out"
          type {
            tensor_type {
              elem_type: 9
              shape {
              }
            }
          }
        }
        output {
          name: "current"
          type {
            tensor_type {
              elem_type: 6
              shape {
              }
            }
          }
        }
        output {
          name: "range"
          type {
            tensor_type {
              elem_type: 6
              shape {
              }
            }
          }
        }
      }
      type: GRAPH
    }
    domain: ""
  }
  node {
    input: "TFNodes/yolo_evaluation_layer_1/arange_2__76_loop:1"
    input: "TFNodes/yolo_evaluation_layer_1/Reshape_7__84:0"
    output: "TFNodes/yolo_evaluation_layer_1/Reshape_7:0"
    name: "TFNodes/yolo_evaluation_layer_1/Reshape_7"
    op_type: "Reshape"
    doc_string: ""
    domain: ""
  }
  node {
    input: "TFNodes/yolo_evaluation_layer_1/Reshape_7:0"
    input: "TFNodes/yolo_evaluation_layer_1/Tile_2__85:0"
    output: "TFNodes/yolo_evaluation_layer_1/Tile_2:0"
    name: "TFNodes/yolo_evaluation_layer_1/Tile_2"
    op_type: "Tile"
  }
  node {
    input: "TFNodes/yolo_evaluation_layer_1/arange_3/delta:0"
    output: "TFNodes/yolo_evaluation_layer_1/arange_3__51_cast_delta:0"
    name: "TFNodes/yolo_evaluation_layer_1/arange_3__51_cast_delta"
    op_type: "Cast"
    attribute {
      name: "to"
      i: 1
      type: INT
    }
    domain: ""
  }
  node {
    input: "TFNodes/yolo_evaluation_layer_1/arange_3__51_cast_diff:0"
    input: "TFNodes/yolo_evaluation_layer_1/arange_3__51_cast_delta:0"
    output: "TFNodes/yolo_evaluation_layer_1/arange_3__51_div:0"
    name: "TFNodes/yolo_evaluation_layer_1/arange_3__51_div"
    op_type: "Div"
    domain: ""
  }
  node {
    input: "TFNodes/yolo_evaluation_layer_1/arange_3__51_div:0"
    output: "TFNodes/yolo_evaluation_layer_1/arange_3__51_ceil:0"
    name: "TFNodes/yolo_evaluation_layer_1/arange_3__51_ceil"
    op_type: "Ceil"
    domain: ""
  }
  node {
    input: "TFNodes/yolo_evaluation_layer_1/arange_3__51_ceil:0"
    output: "TFNodes/yolo_evaluation_layer_1/arange_3__51_trip_cnt:0"
    name: "TFNodes/yolo_evaluation_layer_1/arange_3__51_trip_cnt"
    op_type: "Cast"
    attribute {
      name: "to"
      i: 7
      type: INT
    }
    domain: ""
  }
  node {
    input: "TFNodes/yolo_evaluation_layer_1/arange_3__51_trip_cnt:0"
    input: "TFNodes/yolo_evaluation_layer_1/arange_3__51_cond"
    input: "TFNodes/yolo_evaluation_layer_1/arange_3/start:0"
    output: "TFNodes/yolo_evaluation_layer_1/arange_3__51_loop:0"
    output: "TFNodes/yolo_evaluation_layer_1/arange_3__51_loop:1"
    name: "TFNodes/yolo_evaluation_layer_1/arange_3__51_loop"
    op_type: "Loop"
    attribute {
      name: "body"
      g {
        node {
          input: "prev"
          input: "TFNodes/yolo_evaluation_layer_1/arange_3/delta:0"
          output: "current"
          name: "add__57"
          op_type: "Add"
          domain: ""
        }
        node {
          input: "prev"
          output: "range"
          name: "Identity__58"
          op_type: "Identity"
          domain: ""
        }
        node {
          input: "cond"
          output: "cond_out"
          name: "Identity__56"
          op_type: "Identity"
          domain: ""
        }
        name: "tf2onnx"
        doc_string: "graph for TFNodes/yolo_evaluation_layer_1/arange_3__51_loop body"
        input {
          name: "i"
          type {
            tensor_type {
              elem_type: 7
              shape {
              }
            }
          }
        }
        input {
          name: "cond"
          type {
            tensor_type {
              elem_type: 9
              shape {
              }
            }
          }
        }
        input {
          name: "prev"
          type {
            tensor_type {
              elem_type: 6
              shape {
              }
            }
          }
        }
        output {
          name: "cond_out"
          type {
            tensor_type {
              elem_type: 9
              shape {
              }
            }
          }
        }
        output {
          name: "current"
          type {
            tensor_type {
              elem_type: 6
              shape {
              }
            }
          }
        }
        output {
          name: "range"
          type {
            tensor_type {
              elem_type: 6
              shape {
              }
            }
          }
        }
      }
      type: GRAPH
    }
    domain: ""
  }
  node {
    input: "TFNodes/yolo_evaluation_layer_1/arange_3__51_loop:1"
    input: "TFNodes/yolo_evaluation_layer_1/Reshape_8__59:0"
    output: "TFNodes/yolo_evaluation_layer_1/Reshape_8:0"
    name: "TFNodes/yolo_evaluation_layer_1/Reshape_8"
    op_type: "Reshape"
    doc_string: ""
    domain: ""
  }
  node {
    input: "TFNodes/yolo_evaluation_layer_1/Reshape_8:0"
    input: "TFNodes/yolo_evaluation_layer_1/Tile_3__60:0"
    output: "TFNodes/yolo_evaluation_layer_1/Tile_3:0"
    name: "TFNodes/yolo_evaluation_layer_1/Tile_3"
    op_type: "Tile"
  }
  node {
    input: "TFNodes/yolo_evaluation_layer_1/Tile_3:0"
    input: "TFNodes/yolo_evaluation_layer_1/Tile_2:0"
    output: "TFNodes/yolo_evaluation_layer_1/concat_3:0"
    name: "TFNodes/yolo_evaluation_layer_1/concat_3"
    op_type: "Concat"
    attribute {
      name: "axis"
      i: 3
      type: INT
    }
  }
  node {
    input: "TFNodes/yolo_evaluation_layer_1/concat_3:0"
    output: "TFNodes/yolo_evaluation_layer_1/Cast_4:0"
    name: "TFNodes/yolo_evaluation_layer_1/Cast_4"
    op_type: "Cast"
    attribute {
      name: "to"
      i: 1
      type: INT
    }
  }
  node {
    input: "TFNodes/yolo_evaluation_layer_1/Sigmoid_3:0"
    input: "TFNodes/yolo_evaluation_layer_1/Cast_4:0"
    output: "TFNodes/yolo_evaluation_layer_1/add_2:0"
    name: "TFNodes/yolo_evaluation_layer_1/add_2"
    op_type: "Add"
  }
  node {
    input: "TFNodes/yolo_evaluation_layer_1/add_2:0"
    input: "TFNodes/yolo_evaluation_layer_1/Cast_5:0"
    output: "TFNodes/yolo_evaluation_layer_1/truediv_8:0"
    name: "TFNodes/yolo_evaluation_layer_1/truediv_8"
    op_type: "Div"
  }
  node {
    input: "TFNodes/yolo_evaluation_layer_1/truediv_8:0"
    input: "TFNodes/yolo_evaluation_layer_1/strided_slice_33__104"
    input: "TFNodes/yolo_evaluation_layer_1/strided_slice_33__105"
    input: "TFNodes/yolo_evaluation_layer_1/strided_slice_33__106"
    input: "TFNodes/yolo_evaluation_layer_1/strided_slice_33__107"
    output: "TFNodes/yolo_evaluation_layer_1/strided_slice_33:0"
    name: "TFNodes/yolo_evaluation_layer_1/strided_slice_33"
    op_type: "Slice"
  }
  node {
    input: "TFNodes/yolo_evaluation_layer_1/strided_slice_33:0"
    input: "TFNodes/yolo_evaluation_layer_1/truediv_12:0"
    output: "TFNodes/yolo_evaluation_layer_1/sub_4:0"
    name: "TFNodes/yolo_evaluation_layer_1/sub_4"
    op_type: "Sub"
  }
  node {
    input: "TFNodes/yolo_evaluation_layer_1/sub_4:0"
    input: "TFNodes/yolo_evaluation_layer_1/truediv_13:0"
    output: "TFNodes/yolo_evaluation_layer_1/mul_9:0"
    name: "TFNodes/yolo_evaluation_layer_1/mul_9"
    op_type: "Mul"
  }
  node {
    input: "TFNodes/yolo_evaluation_layer_1/mul_9:0"
    input: "TFNodes/yolo_evaluation_layer_1/truediv_15:0"
    output: "TFNodes/yolo_evaluation_layer_1/add_3:0"
    name: "TFNodes/yolo_evaluation_layer_1/add_3"
    op_type: "Add"
  }
  node {
    input: "TFNodes/yolo_evaluation_layer_1/add_3:0"
    input: "TFNodes/yolo_evaluation_layer_1/strided_slice_37__242"
    input: "TFNodes/yolo_evaluation_layer_1/strided_slice_37__243"
    input: "TFNodes/yolo_evaluation_layer_1/strided_slice_37__244"
    input: "TFNodes/yolo_evaluation_layer_1/strided_slice_37__245"
    output: "TFNodes/yolo_evaluation_layer_1/strided_slice_37:0"
    name: "TFNodes/yolo_evaluation_layer_1/strided_slice_37"
    op_type: "Slice"
  }
  node {
    input: "TFNodes/yolo_evaluation_layer_1/add_3:0"
    input: "TFNodes/yolo_evaluation_layer_1/strided_slice_38__238"
    input: "TFNodes/yolo_evaluation_layer_1/strided_slice_38__239"
    input: "TFNodes/yolo_evaluation_layer_1/strided_slice_38__240"
    input: "TFNodes/yolo_evaluation_layer_1/strided_slice_38__241"
    output: "TFNodes/yolo_evaluation_layer_1/strided_slice_38:0"
    name: "TFNodes/yolo_evaluation_layer_1/strided_slice_38"
    op_type: "Slice"
  }
  node {
    input: "TFNodes/yolo_evaluation_layer_1/mul_9:0"
    input: "TFNodes/yolo_evaluation_layer_1/truediv_14:0"
    output: "TFNodes/yolo_evaluation_layer_1/sub_5:0"
    name: "TFNodes/yolo_evaluation_layer_1/sub_5"
    op_type: "Sub"
  }
  node {
    input: "TFNodes/yolo_evaluation_layer_1/sub_5:0"
    input: "TFNodes/yolo_evaluation_layer_1/strided_slice_35__234"
    input: "TFNodes/yolo_evaluation_layer_1/strided_slice_35__235"
    input: "TFNodes/yolo_evaluation_layer_1/strided_slice_35__236"
    input: "TFNodes/yolo_evaluation_layer_1/strided_slice_35__237"
    output: "TFNodes/yolo_evaluation_layer_1/strided_slice_35:0"
    name: "TFNodes/yolo_evaluation_layer_1/strided_slice_35"
    op_type: "Slice"
  }
  node {
    input: "TFNodes/yolo_evaluation_layer_1/sub_5:0"
    input: "TFNodes/yolo_evaluation_layer_1/strided_slice_36__230"
    input: "TFNodes/yolo_evaluation_layer_1/strided_slice_36__231"
    input: "TFNodes/yolo_evaluation_layer_1/strided_slice_36__232"
    input: "TFNodes/yolo_evaluation_layer_1/strided_slice_36__233"
    output: "TFNodes/yolo_evaluation_layer_1/strided_slice_36:0"
    name: "TFNodes/yolo_evaluation_layer_1/strided_slice_36"
    op_type: "Slice"
  }
  node {
    input: "TFNodes/yolo_evaluation_layer_1/strided_slice_35:0"
    input: "TFNodes/yolo_evaluation_layer_1/strided_slice_36:0"
    input: "TFNodes/yolo_evaluation_layer_1/strided_slice_37:0"
    input: "TFNodes/yolo_evaluation_layer_1/strided_slice_38:0"
    output: "TFNodes/yolo_evaluation_layer_1/concat_4:0"
    name: "TFNodes/yolo_evaluation_layer_1/concat_4"
    op_type: "Concat"
    attribute {
      name: "axis"
      i: 4
      type: INT
    }
  }
  node {
    input: "TFNodes/yolo_evaluation_layer_1/concat_4:0"
    input: "TFNodes/yolo_evaluation_layer_1/concat_5:0"
    output: "TFNodes/yolo_evaluation_layer_1/mul_11:0"
    name: "TFNodes/yolo_evaluation_layer_1/mul_11"
    op_type: "Mul"
  }
  node {
    input: "TFNodes/yolo_evaluation_layer_1/mul_11:0"
    input: "TFNodes/yolo_evaluation_layer_1/Reshape_10__266:0"
    output: "TFNodes/yolo_evaluation_layer_1/Reshape_10:0"
    name: "TFNodes/yolo_evaluation_layer_1/Reshape_10"
    op_type: "Reshape"
  }
  node {
    input: "TFNodes/yolo_evaluation_layer_1/Reshape_4:0"
    input: "TFNodes/yolo_evaluation_layer_1/Reshape_10:0"
    output: "TFNodes/yolo_evaluation_layer_1/concat_6:0"
    name: "TFNodes/yolo_evaluation_layer_1/concat_6"
    op_type: "Concat"
    attribute {
      name: "axis"
      i: 0
      type: INT
    }
  }
  node {
    input: "TFNodes/yolo_evaluation_layer_1/concat_6:0"
    output: "yolo_evaluation_layer_1/concat_6:0_btc"
    name: ""
    op_type: "Unsqueeze"
    attribute {
      name: "axes"
      ints: 0
      type: INTS
    }
    doc_string: ""
    domain: ""
  }
  node {
    input: "TFNodes/yolo_evaluation_layer_1/concat_7:0"
    output: "yolo_evaluation_layer_1/concat_7:0_tx"
    name: "Transpose"
    op_type: "Transpose"
    attribute {
      name: "perm"
      ints: 1
      ints: 0
      type: INTS
    }
    doc_string: ""
    domain: ""
  }
  node {
    input: "yolo_evaluation_layer_1/concat_7:0_tx"
    output: "yolo_evaluation_layer_1/concat_7:0_btc"
    op_type: "Unsqueeze"
    attribute {
      name: "axes"
      ints: 0
      type: INTS
    }
    domain: ""
  }
  node {
    input: "yolo_evaluation_layer_1/concat_6:0_btc"
    input: "yolo_evaluation_layer_1/concat_7:0_btc"
    input: "max_output_size"
    input: "iou_threshold"
    input: "layer.score_threshold"
    output: "casted"
    name: "yolonms_layer_1/non_max_suppression/NonMaxSuppressionV3"
    op_type: "NonMaxSuppression"
    domain: ""
  }
  node {
    input: "casted"
    output: "yolonms_layer_1/concat_2:01"
    name: "Cast"
    op_type: "Cast"
    attribute {
      name: "to"
      i: 6
      type: INT
    }
    domain: ""
  }
  node {
    input: "yolonms_layer_1/concat_2:01"
    output: "yolonms_layer_1/concat_2:0"
    name: "Identity4"
    op_type: "Identity"
    domain: ""
  }
  node {
    input: "yolo_evaluation_layer_1/concat_7:0_btc"
    output: "yolonms_layer_1/ExpandDims_3:0"
    name: "Identity3"
    op_type: "Identity"
    doc_string: ""
    domain: ""
  }
  node {
    input: "yolo_evaluation_layer_1/concat_6:0_btc"
    output: "yolonms_layer_1/ExpandDims_1:0"
    name: "Identity2"
    op_type: "Identity"
    doc_string: ""
    domain: ""
  }
  initializer {
    data_type: 7
    int64_data: 20
    name: "max_output_size"
  }
  initializer {
    data_type: 1
    float_data: 0.5
    name: "iou_threshold"
  }
  initializer {
    data_type: 1
    float_data: 0.6000000238418579
    name: "layer.score_threshold"
  }
  initializer {
    data_type: 1
    name: "TFNodes/yolo_evaluation_layer_1/truediv_7/y:0"
    raw_data: "\000\000\000@"
  }
  initializer {
    data_type: 1
    name: "TFNodes/yolo_evaluation_layer_1/truediv_6/y:0"
    raw_data: "\000\000\000@"
  }
  initializer {
    data_type: 1
    name: "TFNodes/yolo_evaluation_layer_1/truediv_3/y:0"
    raw_data: "\000\000\000@"
  }
  initializer {
    data_type: 1
    name: "TFNodes/yolo_evaluation_layer_1/truediv_15/y:0"
    raw_data: "\000\000\000@"
  }
  initializer {
    data_type: 1
    name: "TFNodes/yolo_evaluation_layer_1/truediv_14/y:0"
    raw_data: "\000\000\000@"
  }
  initializer {
    data_type: 1
    name: "TFNodes/yolo_evaluation_layer_1/truediv_11/y:0"
    raw_data: "\000\000\000@"
  }
  initializer {
    dims: 1
    data_type: 7
    name: "TFNodes/yolo_evaluation_layer_1/strided_slice__187"
    raw_data: "\001\000\000\000\000\000\000\000"
  }
  initializer {
    dims: 1
    data_type: 7
    name: "TFNodes/yolo_evaluation_layer_1/strided_slice__186"
    raw_data: "\000\000\000\000\000\000\000\000"
  }
  initializer {
    dims: 1
    data_type: 7
    name: "TFNodes/yolo_evaluation_layer_1/strided_slice__185"
    raw_data: "\003\000\000\000\000\000\000\000"
  }
  initializer {
    dims: 1
    data_type: 7
    name: "TFNodes/yolo_evaluation_layer_1/strided_slice__184"
    raw_data: "\001\000\000\000\000\000\000\000"
  }
  initializer {
    dims: 1
    data_type: 7
    name: "TFNodes/yolo_evaluation_layer_1/strided_slice_9__116"
    raw_data: "\377\377\377\377\377\377\377\377"
  }
  initializer {
    dims: 1
    data_type: 7
    name: "TFNodes/yolo_evaluation_layer_1/strided_slice_9__115"
    raw_data: "\000\000\000\000\000\000\000\000"
  }
  initializer {
    dims: 1
    data_type: 7
    name: "TFNodes/yolo_evaluation_layer_1/strided_slice_9__114"
    raw_data: "\001\000\000\000\000\000\000\200"
  }
  initializer {
    dims: 1
    data_type: 7
    name: "TFNodes/yolo_evaluation_layer_1/strided_slice_9__113"
    raw_data: "\377\377\377\377\377\377\377\377"
  }
  initializer {
    dims: 1
    data_type: 7
    name: "TFNodes/yolo_evaluation_layer_1/strided_slice_8__204"
    raw_data: "\001\000\000\000\000\000\000\000"
  }
  initializer {
    dims: 1
    data_type: 7
    name: "TFNodes/yolo_evaluation_layer_1/strided_slice_8__203"
    raw_data: "\004\000\000\000\000\000\000\000"
  }
  initializer {
    dims: 1
    data_type: 7
    name: "TFNodes/yolo_evaluation_layer_1/strided_slice_8__202"
    raw_data: "\002\000\000\000\000\000\000\000"
  }
  initializer {
    dims: 1
    data_type: 7
    name: "TFNodes/yolo_evaluation_layer_1/strided_slice_8__201"
    raw_data: "\000\000\000\000\000\000\000\000"
  }
  initializer {
    dims: 1
    data_type: 7
    name: "TFNodes/yolo_evaluation_layer_1/strided_slice_7__120"
    raw_data: "\001\000\000\000\000\000\000\000"
  }
  initializer {
    dims: 1
    data_type: 7
    name: "TFNodes/yolo_evaluation_layer_1/strided_slice_7__119"
    raw_data: "\000\000\000\000\000\000\000\000"
  }
  initializer {
    dims: 1
    data_type: 7
    name: "TFNodes/yolo_evaluation_layer_1/strided_slice_7__118"
    raw_data: "\002\000\000\000\000\000\000\000"
  }
  initializer {
    dims: 1
    data_type: 7
    name: "TFNodes/yolo_evaluation_layer_1/strided_slice_7__117"
    raw_data: "\001\000\000\000\000\000\000\000"
  }
  initializer {
    dims: 1
    data_type: 7
    name: "TFNodes/yolo_evaluation_layer_1/strided_slice_6__125"
    raw_data: "\001\000\000\000\000\000\000\000"
  }
  initializer {
    dims: 1
    data_type: 7
    name: "TFNodes/yolo_evaluation_layer_1/strided_slice_6__124"
    raw_data: "\000\000\000\000\000\000\000\000"
  }
  initializer {
    dims: 1
    data_type: 7
    name: "TFNodes/yolo_evaluation_layer_1/strided_slice_6__123"
    raw_data: "\001\000\000\000\000\000\000\000"
  }
  initializer {
    dims: 1
    data_type: 7
    name: "TFNodes/yolo_evaluation_layer_1/strided_slice_6__122"
    raw_data: "\000\000\000\000\000\000\000\000"
  }
  initializer {
    dims: 1
    data_type: 7
    name: "TFNodes/yolo_evaluation_layer_1/strided_slice_5__136"
    raw_data: "\001\000\000\000\000\000\000\000"
  }
  initializer {
    dims: 1
    data_type: 7
    name: "TFNodes/yolo_evaluation_layer_1/strided_slice_5__135"
    raw_data: "\000\000\000\000\000\000\000\000"
  }
  initializer {
    dims: 1
    data_type: 7
    name: "TFNodes/yolo_evaluation_layer_1/strided_slice_5__134"
    raw_data: "\001\000\000\000\000\000\000\000"
  }
  initializer {
    dims: 1
    data_type: 7
    name: "TFNodes/yolo_evaluation_layer_1/strided_slice_5__133"
    raw_data: "\000\000\000\000\000\000\000\000"
  }
  initializer {
    dims: 1
    data_type: 7
    name: "TFNodes/yolo_evaluation_layer_1/strided_slice_4__146"
    raw_data: "\001\000\000\000\000\000\000\000"
  }
  initializer {
    dims: 1
    data_type: 7
    name: "TFNodes/yolo_evaluation_layer_1/strided_slice_4__145"
    raw_data: "\000\000\000\000\000\000\000\000"
  }
  initializer {
    dims: 1
    data_type: 7
    name: "TFNodes/yolo_evaluation_layer_1/strided_slice_4__144"
    raw_data: "\002\000\000\000\000\000\000\000"
  }
  initializer {
    dims: 1
    data_type: 7
    name: "TFNodes/yolo_evaluation_layer_1/strided_slice_4__143"
    raw_data: "\001\000\000\000\000\000\000\000"
  }
  initializer {
    dims: 1
    data_type: 7
    name: "TFNodes/yolo_evaluation_layer_1/strided_slice_3__161"
    raw_data: "\001\000\000\000\000\000\000\000"
  }
  initializer {
    dims: 1
    data_type: 7
    name: "TFNodes/yolo_evaluation_layer_1/strided_slice_3__160"
    raw_data: "\000\000\000\000\000\000\000\000"
  }
  initializer {
    dims: 1
    data_type: 7
    name: "TFNodes/yolo_evaluation_layer_1/strided_slice_3__159"
    raw_data: "\002\000\000\000\000\000\000\000"
  }
  initializer {
    dims: 1
    data_type: 7
    name: "TFNodes/yolo_evaluation_layer_1/strided_slice_3__158"
    raw_data: "\001\000\000\000\000\000\000\000"
  }
  initializer {
    dims: 1
    data_type: 7
    name: "TFNodes/yolo_evaluation_layer_1/strided_slice_38__241"
    raw_data: "\001\000\000\000\000\000\000\000"
  }
  initializer {
    dims: 1
    data_type: 7
    name: "TFNodes/yolo_evaluation_layer_1/strided_slice_38__240"
    raw_data: "\004\000\000\000\000\000\000\000"
  }
  initializer {
    dims: 1
    data_type: 7
    name: "TFNodes/yolo_evaluation_layer_1/strided_slice_38__239"
    raw_data: "\002\000\000\000\000\000\000\000"
  }
  initializer {
    dims: 1
    data_type: 7
    name: "TFNodes/yolo_evaluation_layer_1/strided_slice_38__238"
    raw_data: "\001\000\000\000\000\000\000\000"
  }
  initializer {
    dims: 1
    data_type: 7
    name: "TFNodes/yolo_evaluation_layer_1/strided_slice_37__245"
    raw_data: "\001\000\000\000\000\000\000\000"
  }
  initializer {
    dims: 1
    data_type: 7
    name: "TFNodes/yolo_evaluation_layer_1/strided_slice_37__244"
    raw_data: "\004\000\000\000\000\000\000\000"
  }
  initializer {
    dims: 1
    data_type: 7
    name: "TFNodes/yolo_evaluation_layer_1/strided_slice_37__243"
    raw_data: "\001\000\000\000\000\000\000\000"
  }
  initializer {
    dims: 1
    data_type: 7
    name: "TFNodes/yolo_evaluation_layer_1/strided_slice_37__242"
    raw_data: "\000\000\000\000\000\000\000\000"
  }
  initializer {
    dims: 1
    data_type: 7
    name: "TFNodes/yolo_evaluation_layer_1/strided_slice_36__233"
    raw_data: "\001\000\000\000\000\000\000\000"
  }
  initializer {
    dims: 1
    data_type: 7
    name: "TFNodes/yolo_evaluation_layer_1/strided_slice_36__232"
    raw_data: "\004\000\000\000\000\000\000\000"
  }
  initializer {
    dims: 1
    data_type: 7
    name: "TFNodes/yolo_evaluation_layer_1/strided_slice_36__231"
    raw_data: "\002\000\000\000\000\000\000\000"
  }
  initializer {
    dims: 1
    data_type: 7
    name: "TFNodes/yolo_evaluation_layer_1/strided_slice_36__230"
    raw_data: "\001\000\000\000\000\000\000\000"
  }
  initializer {
    dims: 1
    data_type: 7
    name: "TFNodes/yolo_evaluation_layer_1/strided_slice_35__237"
    raw_data: "\001\000\000\000\000\000\000\000"
  }
  initializer {
    dims: 1
    data_type: 7
    name: "TFNodes/yolo_evaluation_layer_1/strided_slice_35__236"
    raw_data: "\004\000\000\000\000\000\000\000"
  }
  initializer {
    dims: 1
    data_type: 7
    name: "TFNodes/yolo_evaluation_layer_1/strided_slice_35__235"
    raw_data: "\001\000\000\000\000\000\000\000"
  }
  initializer {
    dims: 1
    data_type: 7
    name: "TFNodes/yolo_evaluation_layer_1/strided_slice_35__234"
    raw_data: "\000\000\000\000\000\000\000\000"
  }
  initializer {
    dims: 1
    data_type: 7
    name: "TFNodes/yolo_evaluation_layer_1/strided_slice_34__195"
    raw_data: "\377\377\377\377\377\377\377\377"
  }
  initializer {
    dims: 1
    data_type: 7
    name: "TFNodes/yolo_evaluation_layer_1/strided_slice_34__194"
    raw_data: "\004\000\000\000\000\000\000\000"
  }
  initializer {
    dims: 1
    data_type: 7
    name: "TFNodes/yolo_evaluation_layer_1/strided_slice_34__193"
    raw_data: "\001\000\000\000\000\000\000\200"
  }
  initializer {
    dims: 1
    data_type: 7
    name: "TFNodes/yolo_evaluation_layer_1/strided_slice_34__192"
    raw_data: "\377\377\377\377\377\377\377\377"
  }
  initializer {
    dims: 1
    data_type: 7
    name: "TFNodes/yolo_evaluation_layer_1/strided_slice_33__107"
    raw_data: "\377\377\377\377\377\377\377\377"
  }
  initializer {
    dims: 1
    data_type: 7
    name: "TFNodes/yolo_evaluation_layer_1/strided_slice_33__106"
    raw_data: "\004\000\000\000\000\000\000\000"
  }
  initializer {
    dims: 1
    data_type: 7
    name: "TFNodes/yolo_evaluation_layer_1/strided_slice_33__105"
    raw_data: "\001\000\000\000\000\000\000\200"
  }
  initializer {
    dims: 1
    data_type: 7
    name: "TFNodes/yolo_evaluation_layer_1/strided_slice_33__104"
    raw_data: "\377\377\377\377\377\377\377\377"
  }
  initializer {
    dims: 1
    data_type: 7
    name: "TFNodes/yolo_evaluation_layer_1/strided_slice_32__90"
    raw_data: "\001\000\000\000\000\000\000\000"
  }
  initializer {
    dims: 1
    data_type: 7
    name: "TFNodes/yolo_evaluation_layer_1/strided_slice_32__89"
    raw_data: "\004\000\000\000\000\000\000\000"
  }
  initializer {
    dims: 1
    data_type: 7
    name: "TFNodes/yolo_evaluation_layer_1/strided_slice_32__88"
    raw_data: "\377\377\377\377\377\377\377\177"
  }
  initializer {
    dims: 1
    data_type: 7
    name: "TFNodes/yolo_evaluation_layer_1/strided_slice_32__87"
    raw_data: "\005\000\000\000\000\000\000\000"
  }
  initializer {
    dims: 1
    data_type: 7
    name: "TFNodes/yolo_evaluation_layer_1/strided_slice_31__94"
    raw_data: "\001\000\000\000\000\000\000\000"
  }
  initializer {
    dims: 1
    data_type: 7
    name: "TFNodes/yolo_evaluation_layer_1/strided_slice_31__93"
    raw_data: "\004\000\000\000\000\000\000\000"
  }
  initializer {
    dims: 1
    data_type: 7
    name: "TFNodes/yolo_evaluation_layer_1/strided_slice_31__92"
    raw_data: "\005\000\000\000\000\000\000\000"
  }
  initializer {
    dims: 1
    data_type: 7
    name: "TFNodes/yolo_evaluation_layer_1/strided_slice_31__91"
    raw_data: "\004\000\000\000\000\000\000\000"
  }
  initializer {
    dims: 1
    data_type: 7
    name: "TFNodes/yolo_evaluation_layer_1/strided_slice_30__191"
    raw_data: "\377\377\377\377\377\377\377\377"
  }
  initializer {
    dims: 1
    data_type: 7
    name: "TFNodes/yolo_evaluation_layer_1/strided_slice_30__190"
    raw_data: "\000\000\000\000\000\000\000\000"
  }
  initializer {
    dims: 1
    data_type: 7
    name: "TFNodes/yolo_evaluation_layer_1/strided_slice_30__189"
    raw_data: "\001\000\000\000\000\000\000\200"
  }
  initializer {
    dims: 1
    data_type: 7
    name: "TFNodes/yolo_evaluation_layer_1/strided_slice_30__188"
    raw_data: "\377\377\377\377\377\377\377\377"
  }
  initializer {
    dims: 1
    data_type: 7
    name: "TFNodes/yolo_evaluation_layer_1/strided_slice_2__171"
    raw_data: "\001\000\000\000\000\000\000\000"
  }
  initializer {
    dims: 1
    data_type: 7
    name: "TFNodes/yolo_evaluation_layer_1/strided_slice_2__170"
    raw_data: "\000\000\000\000\000\000\000\000"
  }
  initializer {
    dims: 1
    data_type: 7
    name: "TFNodes/yolo_evaluation_layer_1/strided_slice_2__169"
    raw_data: "\001\000\000\000\000\000\000\000"
  }
  initializer {
    dims: 1
    data_type: 7
    name: "TFNodes/yolo_evaluation_layer_1/strided_slice_2__168"
    raw_data: "\000\000\000\000\000\000\000\000"
  }
  initializer {
    dims: 1
    data_type: 7
    name: "TFNodes/yolo_evaluation_layer_1/strided_slice_29__99"
    raw_data: "\001\000\000\000\000\000\000\000"
  }
  initializer {
    dims: 1
    data_type: 7
    name: "TFNodes/yolo_evaluation_layer_1/strided_slice_29__98"
    raw_data: "\004\000\000\000\000\000\000\000"
  }
  initializer {
    dims: 1
    data_type: 7
    name: "TFNodes/yolo_evaluation_layer_1/strided_slice_29__97"
    raw_data: "\004\000\000\000\000\000\000\000"
  }
  initializer {
    dims: 1
    data_type: 7
    name: "TFNodes/yolo_evaluation_layer_1/strided_slice_29__96"
    raw_data: "\002\000\000\000\000\000\000\000"
  }
  initializer {
    dims: 1
    data_type: 7
    name: "TFNodes/yolo_evaluation_layer_1/strided_slice_28__19"
    raw_data: "\377\377\377\377\377\377\377\377"
  }
  initializer {
    dims: 1
    data_type: 7
    name: "TFNodes/yolo_evaluation_layer_1/strided_slice_28__18"
    raw_data: "\000\000\000\000\000\000\000\000"
  }
  initializer {
    dims: 1
    data_type: 7
    name: "TFNodes/yolo_evaluation_layer_1/strided_slice_28__17"
    raw_data: "\001\000\000\000\000\000\000\200"
  }
  initializer {
    dims: 1
    data_type: 7
    name: "TFNodes/yolo_evaluation_layer_1/strided_slice_28__16"
    raw_data: "\377\377\377\377\377\377\377\377"
  }
  initializer {
    dims: 1
    data_type: 7
    name: "TFNodes/yolo_evaluation_layer_1/strided_slice_27__103"
    raw_data: "\001\000\000\000\000\000\000\000"
  }
  initializer {
    dims: 1
    data_type: 7
    name: "TFNodes/yolo_evaluation_layer_1/strided_slice_27__102"
    raw_data: "\004\000\000\000\000\000\000\000"
  }
  initializer {
    dims: 1
    data_type: 7
    name: "TFNodes/yolo_evaluation_layer_1/strided_slice_27__101"
    raw_data: "\002\000\000\000\000\000\000\000"
  }
  initializer {
    dims: 1
    data_type: 7
    name: "TFNodes/yolo_evaluation_layer_1/strided_slice_27__100"
    raw_data: "\000\000\000\000\000\000\000\000"
  }
  initializer {
    dims: 1
    data_type: 7
    name: "TFNodes/yolo_evaluation_layer_1/strided_slice_26__23"
    raw_data: "\001\000\000\000\000\000\000\000"
  }
  initializer {
    dims: 1
    data_type: 7
    name: "TFNodes/yolo_evaluation_layer_1/strided_slice_26__22"
    raw_data: "\000\000\000\000\000\000\000\000"
  }
  initializer {
    dims: 1
    data_type: 7
    name: "TFNodes/yolo_evaluation_layer_1/strided_slice_26__21"
    raw_data: "\002\000\000\000\000\000\000\000"
  }
  initializer {
    dims: 1
    data_type: 7
    name: "TFNodes/yolo_evaluation_layer_1/strided_slice_26__20"
    raw_data: "\001\000\000\000\000\000\000\000"
  }
  initializer {
    dims: 1
    data_type: 7
    name: "TFNodes/yolo_evaluation_layer_1/strided_slice_25__28"
    raw_data: "\001\000\000\000\000\000\000\000"
  }
  initializer {
    dims: 1
    data_type: 7
    name: "TFNodes/yolo_evaluation_layer_1/strided_slice_25__27"
    raw_data: "\000\000\000\000\000\000\000\000"
  }
  initializer {
    dims: 1
    data_type: 7
    name: "TFNodes/yolo_evaluation_layer_1/strided_slice_25__26"
    raw_data: "\001\000\000\000\000\000\000\000"
  }
  initializer {
    dims: 1
    data_type: 7
    name: "TFNodes/yolo_evaluation_layer_1/strided_slice_25__25"
    raw_data: "\000\000\000\000\000\000\000\000"
  }
  initializer {
    dims: 1
    data_type: 7
    name: "TFNodes/yolo_evaluation_layer_1/strided_slice_24__39"
    raw_data: "\001\000\000\000\000\000\000\000"
  }
  initializer {
    dims: 1
    data_type: 7
    name: "TFNodes/yolo_evaluation_layer_1/strided_slice_24__38"
    raw_data: "\000\000\000\000\000\000\000\000"
  }
  initializer {
    dims: 1
    data_type: 7
    name: "TFNodes/yolo_evaluation_layer_1/strided_slice_24__37"
    raw_data: "\001\000\000\000\000\000\000\000"
  }
  initializer {
    dims: 1
    data_type: 7
    name: "TFNodes/yolo_evaluation_layer_1/strided_slice_24__36"
    raw_data: "\000\000\000\000\000\000\000\000"
  }
  initializer {
    dims: 1
    data_type: 7
    name: "TFNodes/yolo_evaluation_layer_1/strided_slice_23__49"
    raw_data: "\001\000\000\000\000\000\000\000"
  }
  initializer {
    dims: 1
    data_type: 7
    name: "TFNodes/yolo_evaluation_layer_1/strided_slice_23__48"
    raw_data: "\000\000\000\000\000\000\000\000"
  }
  initializer {
    dims: 1
    data_type: 7
    name: "TFNodes/yolo_evaluation_layer_1/strided_slice_23__47"
    raw_data: "\002\000\000\000\000\000\000\000"
  }
  initializer {
    dims: 1
    data_type: 7
    name: "TFNodes/yolo_evaluation_layer_1/strided_slice_23__46"
    raw_data: "\001\000\000\000\000\000\000\000"
  }
  initializer {
    dims: 1
    data_type: 7
    name: "TFNodes/yolo_evaluation_layer_1/strided_slice_22__64"
    raw_data: "\001\000\000\000\000\000\000\000"
  }
  initializer {
    dims: 1
    data_type: 7
    name: "TFNodes/yolo_evaluation_layer_1/strided_slice_22__63"
    raw_data: "\000\000\000\000\000\000\000\000"
  }
  initializer {
    dims: 1
    data_type: 7
    name: "TFNodes/yolo_evaluation_layer_1/strided_slice_22__62"
    raw_data: "\002\000\000\000\000\000\000\000"
  }
  initializer {
    dims: 1
    data_type: 7
    name: "TFNodes/yolo_evaluation_layer_1/strided_slice_22__61"
    raw_data: "\001\000\000\000\000\000\000\000"
  }
  initializer {
    dims: 1
    data_type: 7
    name: "TFNodes/yolo_evaluation_layer_1/strided_slice_21__74"
    raw_data: "\001\000\000\000\000\000\000\000"
  }
  initializer {
    dims: 1
    data_type: 7
    name: "TFNodes/yolo_evaluation_layer_1/strided_slice_21__73"
    raw_data: "\000\000\000\000\000\000\000\000"
  }
  initializer {
    dims: 1
    data_type: 7
    name: "TFNodes/yolo_evaluation_layer_1/strided_slice_21__72"
    raw_data: "\001\000\000\000\000\000\000\000"
  }
  initializer {
    dims: 1
    data_type: 7
    name: "TFNodes/yolo_evaluation_layer_1/strided_slice_21__71"
    raw_data: "\000\000\000\000\000\000\000\000"
  }
  initializer {
    dims: 1
    data_type: 7
    name: "TFNodes/yolo_evaluation_layer_1/strided_slice_20__15"
    raw_data: "\001\000\000\000\000\000\000\000"
  }
  initializer {
    dims: 1
    data_type: 7
    name: "TFNodes/yolo_evaluation_layer_1/strided_slice_20__14"
    raw_data: "\000\000\000\000\000\000\000\000"
  }
  initializer {
    dims: 1
    data_type: 7
    name: "TFNodes/yolo_evaluation_layer_1/strided_slice_20__13"
    raw_data: "\003\000\000\000\000\000\000\000"
  }
  initializer {
    dims: 1
    data_type: 7
    name: "TFNodes/yolo_evaluation_layer_1/strided_slice_20__12"
    raw_data: "\001\000\000\000\000\000\000\000"
  }
  initializer {
    dims: 1
    data_type: 7
    name: "TFNodes/yolo_evaluation_layer_1/strided_slice_1__112"
    raw_data: "\001\000\000\000\000\000\000\000"
  }
  initializer {
    dims: 1
    data_type: 7
    name: "TFNodes/yolo_evaluation_layer_1/strided_slice_1__111"
    raw_data: "\000\000\000\000\000\000\000\000"
  }
  initializer {
    dims: 1
    data_type: 7
    name: "TFNodes/yolo_evaluation_layer_1/strided_slice_1__110"
    raw_data: "\003\000\000\000\000\000\000\000"
  }
  initializer {
    dims: 1
    data_type: 7
    name: "TFNodes/yolo_evaluation_layer_1/strided_slice_1__109"
    raw_data: "\001\000\000\000\000\000\000\000"
  }
  initializer {
    dims: 1
    data_type: 7
    name: "TFNodes/yolo_evaluation_layer_1/strided_slice_19__261"
    raw_data: "\001\000\000\000\000\000\000\000"
  }
  initializer {
    dims: 1
    data_type: 7
    name: "TFNodes/yolo_evaluation_layer_1/strided_slice_19__260"
    raw_data: "\004\000\000\000\000\000\000\000"
  }
  initializer {
    dims: 1
    data_type: 7
    name: "TFNodes/yolo_evaluation_layer_1/strided_slice_19__259"
    raw_data: "\002\000\000\000\000\000\000\000"
  }
  initializer {
    dims: 1
    data_type: 7
    name: "TFNodes/yolo_evaluation_layer_1/strided_slice_19__258"
    raw_data: "\001\000\000\000\000\000\000\000"
  }
  initializer {
    dims: 1
    data_type: 7
    name: "TFNodes/yolo_evaluation_layer_1/strided_slice_18__265"
    raw_data: "\001\000\000\000\000\000\000\000"
  }
  initializer {
    dims: 1
    data_type: 7
    name: "TFNodes/yolo_evaluation_layer_1/strided_slice_18__264"
    raw_data: "\004\000\000\000\000\000\000\000"
  }
  initializer {
    dims: 1
    data_type: 7
    name: "TFNodes/yolo_evaluation_layer_1/strided_slice_18__263"
    raw_data: "\001\000\000\000\000\000\000\000"
  }
  initializer {
    dims: 1
    data_type: 7
    name: "TFNodes/yolo_evaluation_layer_1/strided_slice_18__262"
    raw_data: "\000\000\000\000\000\000\000\000"
  }
  initializer {
    dims: 1
    data_type: 7
    name: "TFNodes/yolo_evaluation_layer_1/strided_slice_17__253"
    raw_data: "\001\000\000\000\000\000\000\000"
  }
  initializer {
    dims: 1
    data_type: 7
    name: "TFNodes/yolo_evaluation_layer_1/strided_slice_17__252"
    raw_data: "\004\000\000\000\000\000\000\000"
  }
  initializer {
    dims: 1
    data_type: 7
    name: "TFNodes/yolo_evaluation_layer_1/strided_slice_17__251"
    raw_data: "\002\000\000\000\000\000\000\000"
  }
  initializer {
    dims: 1
    data_type: 7
    name: "TFNodes/yolo_evaluation_layer_1/strided_slice_17__250"
    raw_data: "\001\000\000\000\000\000\000\000"
  }
  initializer {
    dims: 1
    data_type: 7
    name: "TFNodes/yolo_evaluation_layer_1/strided_slice_16__257"
    raw_data: "\001\000\000\000\000\000\000\000"
  }
  initializer {
    dims: 1
    data_type: 7
    name: "TFNodes/yolo_evaluation_layer_1/strided_slice_16__256"
    raw_data: "\004\000\000\000\000\000\000\000"
  }
  initializer {
    dims: 1
    data_type: 7
    name: "TFNodes/yolo_evaluation_layer_1/strided_slice_16__255"
    raw_data: "\001\000\000\000\000\000\000\000"
  }
  initializer {
    dims: 1
    data_type: 7
    name: "TFNodes/yolo_evaluation_layer_1/strided_slice_16__254"
    raw_data: "\000\000\000\000\000\000\000\000"
  }
  initializer {
    dims: 1
    data_type: 7
    name: "TFNodes/yolo_evaluation_layer_1/strided_slice_15__225"
    raw_data: "\377\377\377\377\377\377\377\377"
  }
  initializer {
    dims: 1
    data_type: 7
    name: "TFNodes/yolo_evaluation_layer_1/strided_slice_15__224"
    raw_data: "\004\000\000\000\000\000\000\000"
  }
  initializer {
    dims: 1
    data_type: 7
    name: "TFNodes/yolo_evaluation_layer_1/strided_slice_15__223"
    raw_data: "\001\000\000\000\000\000\000\200"
  }
  initializer {
    dims: 1
    data_type: 7
    name: "TFNodes/yolo_evaluation_layer_1/strided_slice_15__222"
    raw_data: "\377\377\377\377\377\377\377\377"
  }
  initializer {
    dims: 1
    data_type: 7
    name: "TFNodes/yolo_evaluation_layer_1/strided_slice_14__208"
    raw_data: "\377\377\377\377\377\377\377\377"
  }
  initializer {
    dims: 1
    data_type: 7
    name: "TFNodes/yolo_evaluation_layer_1/strided_slice_14__207"
    raw_data: "\004\000\000\000\000\000\000\000"
  }
  initializer {
    dims: 1
    data_type: 7
    name: "TFNodes/yolo_evaluation_layer_1/strided_slice_14__206"
    raw_data: "\001\000\000\000\000\000\000\200"
  }
  initializer {
    dims: 1
    data_type: 7
    name: "TFNodes/yolo_evaluation_layer_1/strided_slice_14__205"
    raw_data: "\377\377\377\377\377\377\377\377"
  }
  initializer {
    dims: 1
    data_type: 7
    name: "TFNodes/yolo_evaluation_layer_1/strided_slice_13__212"
    raw_data: "\001\000\000\000\000\000\000\000"
  }
  initializer {
    dims: 1
    data_type: 7
    name: "TFNodes/yolo_evaluation_layer_1/strided_slice_13__211"
    raw_data: "\004\000\000\000\000\000\000\000"
  }
  initializer {
    dims: 1
    data_type: 7
    name: "TFNodes/yolo_evaluation_layer_1/strided_slice_13__210"
    raw_data: "\377\377\377\377\377\377\377\177"
  }
  initializer {
    dims: 1
    data_type: 7
    name: "TFNodes/yolo_evaluation_layer_1/strided_slice_13__209"
    raw_data: "\005\000\000\000\000\000\000\000"
  }
  initializer {
    dims: 1
    data_type: 7
    name: "TFNodes/yolo_evaluation_layer_1/strided_slice_12__216"
    raw_data: "\001\000\000\000\000\000\000\000"
  }
  initializer {
    dims: 1
    data_type: 7
    name: "TFNodes/yolo_evaluation_layer_1/strided_slice_12__215"
    raw_data: "\004\000\000\000\000\000\000\000"
  }
  initializer {
    dims: 1
    data_type: 7
    name: "TFNodes/yolo_evaluation_layer_1/strided_slice_12__214"
    raw_data: "\005\000\000\000\000\000\000\000"
  }
  initializer {
    dims: 1
    data_type: 7
    name: "TFNodes/yolo_evaluation_layer_1/strided_slice_12__213"
    raw_data: "\004\000\000\000\000\000\000\000"
  }
  initializer {
    dims: 1
    data_type: 7
    name: "TFNodes/yolo_evaluation_layer_1/strided_slice_11__199"
    raw_data: "\377\377\377\377\377\377\377\377"
  }
  initializer {
    dims: 1
    data_type: 7
    name: "TFNodes/yolo_evaluation_layer_1/strided_slice_11__198"
    raw_data: "\000\000\000\000\000\000\000\000"
  }
  initializer {
    dims: 1
    data_type: 7
    name: "TFNodes/yolo_evaluation_layer_1/strided_slice_11__197"
    raw_data: "\001\000\000\000\000\000\000\200"
  }
  initializer {
    dims: 1
    data_type: 7
    name: "TFNodes/yolo_evaluation_layer_1/strided_slice_11__196"
    raw_data: "\377\377\377\377\377\377\377\377"
  }
  initializer {
    dims: 1
    data_type: 7
    name: "TFNodes/yolo_evaluation_layer_1/strided_slice_10__221"
    raw_data: "\001\000\000\000\000\000\000\000"
  }
  initializer {
    dims: 1
    data_type: 7
    name: "TFNodes/yolo_evaluation_layer_1/strided_slice_10__220"
    raw_data: "\004\000\000\000\000\000\000\000"
  }
  initializer {
    dims: 1
    data_type: 7
    name: "TFNodes/yolo_evaluation_layer_1/strided_slice_10__219"
    raw_data: "\004\000\000\000\000\000\000\000"
  }
  initializer {
    dims: 1
    data_type: 7
    name: "TFNodes/yolo_evaluation_layer_1/strided_slice_10__218"
    raw_data: "\002\000\000\000\000\000\000\000"
  }
  initializer {
    data_type: 6
    name: "TFNodes/yolo_evaluation_layer_1/mul/y:0"
    raw_data: " \000\000\000"
  }
  initializer {
    data_type: 9
    name: "TFNodes/yolo_evaluation_layer_1/arange__173_cond"
    raw_data: "\001"
  }
  initializer {
    data_type: 9
    name: "TFNodes/yolo_evaluation_layer_1/arange_3__51_cond"
    raw_data: "\001"
  }
  initializer {
    data_type: 6
    name: "TFNodes/yolo_evaluation_layer_1/arange_3/start:0"
    raw_data: "\000\000\000\000"
  }
  initializer {
    data_type: 6
    name: "TFNodes/yolo_evaluation_layer_1/arange_3/delta:0"
    raw_data: "\001\000\000\000"
  }
  initializer {
    data_type: 9
    name: "TFNodes/yolo_evaluation_layer_1/arange_2__76_cond"
    raw_data: "\001"
  }
  initializer {
    data_type: 6
    name: "TFNodes/yolo_evaluation_layer_1/arange_2/start:0"
    raw_data: "\000\000\000\000"
  }
  initializer {
    data_type: 6
    name: "TFNodes/yolo_evaluation_layer_1/arange_2/delta:0"
    raw_data: "\001\000\000\000"
  }
  initializer {
    data_type: 9
    name: "TFNodes/yolo_evaluation_layer_1/arange_1__148_cond"
    raw_data: "\001"
  }
  initializer {
    data_type: 6
    name: "TFNodes/yolo_evaluation_layer_1/arange_1/start:0"
    raw_data: "\000\000\000\000"
  }
  initializer {
    data_type: 6
    name: "TFNodes/yolo_evaluation_layer_1/arange_1/delta:0"
    raw_data: "\001\000\000\000"
  }
  initializer {
    data_type: 6
    name: "TFNodes/yolo_evaluation_layer_1/arange/start:0"
    raw_data: "\000\000\000\000"
  }
  initializer {
    data_type: 6
    name: "TFNodes/yolo_evaluation_layer_1/arange/delta:0"
    raw_data: "\001\000\000\000"
  }
  initializer {
    data_type: 6
    name: "TFNodes/yolo_evaluation_layer_1/Tile_3/multiples/3:0"
    raw_data: "\001\000\000\000"
  }
  initializer {
    data_type: 6
    name: "TFNodes/yolo_evaluation_layer_1/Tile_3/multiples/2:0"
    raw_data: "\001\000\000\000"
  }
  initializer {
    data_type: 6
    name: "TFNodes/yolo_evaluation_layer_1/Tile_3/multiples/1:0"
    raw_data: "\001\000\000\000"
  }
  initializer {
    data_type: 6
    name: "TFNodes/yolo_evaluation_layer_1/Tile_2/multiples/3:0"
    raw_data: "\001\000\000\000"
  }
  initializer {
    data_type: 6
    name: "TFNodes/yolo_evaluation_layer_1/Tile_2/multiples/2:0"
    raw_data: "\001\000\000\000"
  }
  initializer {
    data_type: 6
    name: "TFNodes/yolo_evaluation_layer_1/Tile_2/multiples/0:0"
    raw_data: "\001\000\000\000"
  }
  initializer {
    data_type: 6
    name: "TFNodes/yolo_evaluation_layer_1/Tile_1/multiples/3:0"
    raw_data: "\001\000\000\000"
  }
  initializer {
    data_type: 6
    name: "TFNodes/yolo_evaluation_layer_1/Tile_1/multiples/2:0"
    raw_data: "\001\000\000\000"
  }
  initializer {
    data_type: 6
    name: "TFNodes/yolo_evaluation_layer_1/Tile_1/multiples/1:0"
    raw_data: "\001\000\000\000"
  }
  initializer {
    data_type: 6
    name: "TFNodes/yolo_evaluation_layer_1/Tile/multiples/3:0"
    raw_data: "\001\000\000\000"
  }
  initializer {
    data_type: 6
    name: "TFNodes/yolo_evaluation_layer_1/Tile/multiples/2:0"
    raw_data: "\001\000\000\000"
  }
  initializer {
    data_type: 6
    name: "TFNodes/yolo_evaluation_layer_1/Tile/multiples/0:0"
    raw_data: "\001\000\000\000"
  }
  initializer {
    data_type: 11
    name: "TFNodes/yolo_evaluation_layer_1/Round__246"
    raw_data: "\000\000\000\000\000\000\340\277"
  }
  initializer {
    data_type: 11
    name: "TFNodes/yolo_evaluation_layer_1/Round_1__226"
    raw_data: "\000\000\000\000\000\000\340\277"
  }
  initializer {
    data_type: 6
    name: "TFNodes/yolo_evaluation_layer_1/Reshape_9/shape/4:0"
    raw_data: "\006\000\000\000"
  }
  initializer {
    data_type: 6
    name: "TFNodes/yolo_evaluation_layer_1/Reshape_9/shape/3:0"
    raw_data: "\003\000\000\000"
  }
  initializer {
    data_type: 6
    name: "TFNodes/yolo_evaluation_layer_1/Reshape_9/shape/0:0"
    raw_data: "\377\377\377\377"
  }
  initializer {
    dims: 4
    data_type: 6
    name: "TFNodes/yolo_evaluation_layer_1/Reshape_8/shape:0"
    raw_data: "\001\000\000\000\377\377\377\377\001\000\000\000\001\000\000\000"
  }
  initializer {
    dims: 4
    data_type: 6
    name: "TFNodes/yolo_evaluation_layer_1/Reshape_7/shape:0"
    raw_data: "\377\377\377\377\001\000\000\000\001\000\000\000\001\000\000\000"
  }
  initializer {
    dims: 5
    data_type: 6
    name: "TFNodes/yolo_evaluation_layer_1/Reshape_6/shape:0"
    raw_data: "\001\000\000\000\001\000\000\000\001\000\000\000\003\000\000\000\002\000\000\000"
  }
  initializer {
    dims: 2
    data_type: 6
    name: "TFNodes/yolo_evaluation_layer_1/Reshape_5/shape:0"
    raw_data: "\377\377\377\377\001\000\000\000"
  }
  initializer {
    dims: 2
    data_type: 6
    name: "TFNodes/yolo_evaluation_layer_1/Reshape_4/shape:0"
    raw_data: "\377\377\377\377\004\000\000\000"
  }
  initializer {
    data_type: 6
    name: "TFNodes/yolo_evaluation_layer_1/Reshape_3/shape/4:0"
    raw_data: "\006\000\000\000"
  }
  initializer {
    data_type: 6
    name: "TFNodes/yolo_evaluation_layer_1/Reshape_3/shape/3:0"
    raw_data: "\003\000\000\000"
  }
  initializer {
    data_type: 6
    name: "TFNodes/yolo_evaluation_layer_1/Reshape_3/shape/0:0"
    raw_data: "\377\377\377\377"
  }
  initializer {
    dims: 4
    data_type: 6
    name: "TFNodes/yolo_evaluation_layer_1/Reshape_2/shape:0"
    raw_data: "\001\000\000\000\377\377\377\377\001\000\000\000\001\000\000\000"
  }
  initializer {
    dims: 2
    data_type: 6
    name: "TFNodes/yolo_evaluation_layer_1/Reshape_11/shape:0"
    raw_data: "\377\377\377\377\001\000\000\000"
  }
  initializer {
    dims: 2
    data_type: 6
    name: "TFNodes/yolo_evaluation_layer_1/Reshape_10/shape:0"
    raw_data: "\377\377\377\377\004\000\000\000"
  }
  initializer {
    dims: 4
    data_type: 6
    name: "TFNodes/yolo_evaluation_layer_1/Reshape_1/shape:0"
    raw_data: "\377\377\377\377\001\000\000\000\001\000\000\000\001\000\000\000"
  }
  initializer {
    dims: 5
    data_type: 6
    name: "TFNodes/yolo_evaluation_layer_1/Reshape/shape:0"
    raw_data: "\001\000\000\000\001\000\000\000\001\000\000\000\003\000\000\000\002\000\000\000"
  }
  initializer {
    dims: 3
    dims: 2
    data_type: 1
    name: "TFNodes/yolo_evaluation_layer_1/Const_2:0"
    raw_data: "\000\000\270A\000\000\330A\000\000\024B\000\000hB\000\000\242B\000\000\244B"
  }
  initializer {
    dims: 3
    dims: 2
    data_type: 1
    name: "TFNodes/yolo_evaluation_layer_1/Const:0"
    raw_data: "\000\000\242B\000\000\244B\000\000\007C\000\000)C\000\000\254C\000\200\237C"
  }
  initializer {
      dims: 18
      dims: 256
      dims: 1
      dims: 1
      data_type: 1
      name: "W"
  }
  initializer {
    dims: 18
    data_type: 1
…
    name: "B"
  }
  initializer {
      dims: 18
      dims: 512
      dims: 1
      dims: 1
      data_type: 1
      name: "W1"
  }
  initializer {
    dims: 18
    data_type: 1
…
    name: "B1"
  }
  initializer {
      dims: 256
      data_type: 1
      name: "scale"
  }
  initializer {
      dims: 256
      data_type: 1
      name: "bias"
  }
  initializer {
      dims: 256
      data_type: 1
      name: "mean"
  }
  initializer {
      dims: 256
      data_type: 1
      name: "var"
  }
  initializer {
      dims: 512
      data_type: 1
      name: "scale1"
  }
  initializer {
      dims: 512
      data_type: 1
      name: "bias1"
  }
  initializer {
      dims: 512
      data_type: 1
      name: "mean1"
  }
  initializer {
      dims: 512
      data_type: 1
      name: "var1"
  }
  initializer {
      dims: 256
      dims: 384
      dims: 3
      dims: 3
      data_type: 1
      name: "W2"
  }
  initializer {
      dims: 512
      dims: 256
      dims: 3
      dims: 3
      data_type: 1
      name: "W3"
  }
  initializer {
    dims: 4
    data_type: 1
    float_data: 1.0
    float_data: 1.0
    float_data: 2.0
    float_data: 2.0
    name: "Resize_scales"
  }
  initializer {
      dims: 128
      data_type: 1
      name: "scale2"
  }
  initializer {
      dims: 128
      data_type: 1
      name: "bias2"
  }
  initializer {
      dims: 128
      data_type: 1
      name: "mean2"
  }
  initializer {
      dims: 128
      data_type: 1
      name: "var2"
  }
  initializer {
      dims: 128
      dims: 256
      dims: 1
      dims: 1
      data_type: 1
      name: "W4"
  }
  initializer {
      dims: 256
      data_type: 1
      name: "scale3"
  }
  initializer {
      dims: 256
      data_type: 1
      name: "bias3"
  }
  initializer {
      dims: 256
      data_type: 1
      name: "mean3"
  }
  initializer {
      dims: 256
      data_type: 1
      name: "var3"
  }
  initializer {
      dims: 256
      dims: 1024
      dims: 1
      dims: 1
      data_type: 1
      name: "W5"
  }
  initializer {
      dims: 1024
      data_type: 1
      name: "scale4"
  }
  initializer {
      dims: 1024
      data_type: 1
      name: "bias4"
  }
  initializer {
      dims: 1024
      data_type: 1
      name: "mean4"
  }
  initializer {
      dims: 1024
      data_type: 1
      name: "var4"
  }
  initializer {
      dims: 1024
      dims: 512
      dims: 3
      dims: 3
      data_type: 1
      name: "W6"
  }
  initializer {
      dims: 512
      data_type: 1
      name: "scale5"
  }
  initializer {
      dims: 512
      data_type: 1
      name: "bias5"
  }
  initializer {
      dims: 512
      data_type: 1
      name: "mean5"
  }
  initializer {
      dims: 512
      data_type: 1
      name: "var5"
  }
  initializer {
      dims: 512
      dims: 256
      dims: 3
      dims: 3
      data_type: 1
      name: "W7"
  }
  initializer {
      dims: 256
      data_type: 1
      name: "scale6"
  }
  initializer {
      dims: 256
      data_type: 1
      name: "bias6"
  }
  initializer {
      dims: 256
      data_type: 1
      name: "mean6"
  }
  initializer {
      dims: 256
      data_type: 1
      name: "var6"
  }
  initializer {
      dims: 256
      dims: 128
      dims: 3
      dims: 3
      data_type: 1
      name: "W8"
  }
  initializer {
      dims: 128
      data_type: 1
      name: "scale7"
  }
  initializer {
      dims: 128
      data_type: 1
      name: "bias7"
  }
  initializer {
      dims: 128
      data_type: 1
      name: "mean7"
  }
  initializer {
      dims: 128
      data_type: 1
      name: "var7"
  }
  initializer {
      dims: 128
      dims: 64
      dims: 3
      dims: 3
      data_type: 1
      name: "W9"
  }
  initializer {
      dims: 64
      data_type: 1
      name: "scale8"
  }
  initializer {
      dims: 64
      data_type: 1
      name: "bias8"
  }
  initializer {
      dims: 64
      data_type: 1
      name: "mean8"
  }
  initializer {
      dims: 64
      data_type: 1
      name: "var8"
  }
  initializer {
      dims: 64
      dims: 32
      dims: 3
      dims: 3
      data_type: 1
      name: "W10"
  }
  initializer {
    dims: 32
    data_type: 1
…
    name: "scale9"
  }
  initializer {
    dims: 32
    data_type: 1
…
    name: "bias9"
  }
  initializer {
    dims: 32
    data_type: 1
…
    name: "mean9"
  }
  initializer {
    dims: 32
    data_type: 1
…
    name: "var9"
  }
  initializer {
      dims: 32
      dims: 16
      dims: 3
      dims: 3
      data_type: 1
      name: "W11"
  }
  initializer {
    dims: 16
    data_type: 1
…
    name: "scale10"
  }
  initializer {
    dims: 16
    data_type: 1
…
    name: "bias10"
  }
  initializer {
    dims: 16
    data_type: 1
…
    name: "mean10"
  }
  initializer {
    dims: 16
    data_type: 1
…
    name: "var10"
  }
  initializer {
      dims: 16
      dims: 3
      dims: 3
      dims: 3
      data_type: 1
      name: "W12"
  }
  input {
    name: "input_1"
    type {
      tensor_type {
        elem_type: 1
        shape {
          dim {
            dim_param: "N"
          }
          dim {
            dim_value: 3
          }
          dim {
          }
          dim {
          }
        }
      }
    }
  }
  input {
    name: "image_shape"
    type {
      tensor_type {
        elem_type: 1
        shape {
          dim {
            dim_param: "N"
          }
          dim {
            dim_value: 2
          }
        }
      }
    }
  }
  output {
    name: "yolonms_layer_1/ExpandDims_1:0"
    type {
      tensor_type {
        elem_type: 1
        shape {
          dim {
          }
          dim {
          }
          dim {
            dim_value: 4
          }
        }
      }
    }
  }
  output {
    name: "yolonms_layer_1/ExpandDims_3:0"
    type {
      tensor_type {
        elem_type: 1
        shape {
          dim {
          }
          dim {
          }
          dim {
          }
        }
      }
    }
  }
  output {
    name: "yolonms_layer_1/concat_2:0"
    type {
      tensor_type {
        elem_type: 6
        shape {
          dim {
          }
          dim {
          }
        }
      }
    }
  }
}
opset_import {
  version: 10
}
